model_checkpoints/autoencoder_best_model.pth (torch, 33442 bytes, 20 tensors)

encoder.0.weight f4 [32, 47]
0	0x3e683c49	0.22679247
1	0x3dbfc203	0.09363177
2	0xbd1e3cae	-0.038632087
3	0x3e3420d1	0.17590643
4	0xbcbfe173	-0.023422932
5	0xbd2fdfc1	-0.042937998
6	0x3e15106c	0.14557046
7	0x3d10f8ac	0.035393402
8	0xbd1c29ce	-0.038125806
9	0x3ee32535	0.44364324
10	0xb95ee882	-0.00021258186
11	0x3d518117	0.0511485
12	0x3d94f34a	0.07272966
13	0x3e270ee1	0.1631427
14	0x3d1c6259	0.03817973
15	0xbd6eb58f	-0.058278617
16	0xbd71ae01	-0.059003834
17	0x3e421b17	0.18955646
18	0x3ea963be	0.3308391
19	0x3e83e9a8	0.25764203
20	0x3d467988	0.048455745
21	0x3dbdc5d6	0.0926625
22	0x3a9b46e8	0.0011846693
23	0x3dcd3c9b	0.10021325
24	0x3e36faef	0.17869161
25	0x3cbf6e80	0.02336812
26	0x3e0b2f23	0.135922
27	0x3dce4151	0.10071052
28	0x3c9e637c	0.019334547
29	0x3de20def	0.11037814
30	0x3ed38956	0.41315717
31	0xbde4dae0	-0.111745596
32	0xbebe42bc	-0.3716029
33	0x3e9e0d90	0.30869722
34	0x3d19d6f8	0.037558526
35	0x3d0fe958	0.035134643
36	0xbc5c0582	-0.013429048
37	0x3e38317d	0.17987628
38	0x3e2b4627	0.1672598
39	0x3e153db6	0.14574322
40	0x3d38bdf2	0.04510302
41	0xbdeacd93	-0.114649914
42	0x3e159589	0.14607824
43	0x3dba406f	0.09094321
44	0xbd87abb2	-0.06624545
45	0x3dbd319a	0.09237976
46	0x3dda9f91	0.10674966
47	0x3e9c1080	0.30481339
48	0x3de0a759	0.10969419
49	0x3abdf986	0.001449392
50	0x3ea843ae	0.32864136
51	0x3e6001a4	0.21875626
52	0x3d703228	0.058641583
53	0xbc965ec9	-0.018355744
54	0xbb4b531f	-0.0031024886
55	0xbe2d69dd	-0.16934915
56	0x3eab0fc0	0.33410454
57	0x3bbcd540	0.005762726
58	0x3e02843c	0.12745756
59	0xbe6f7864	-0.23385769
60	0xbdb4b478	-0.08823484
61	0x3e3f9a9c	0.18711323
62	0xbece5920	-0.40302372
63	0x3eb7efd4	0.35925162
64	0xbedc8637	-0.43071148
65	0xbe8d6663	-0.27617177
66	0x3da76a4b	0.08174571
67	0x3c10e94a	0.008844683
68	0xbdf6b009	-0.12045295
69	0xbbc91097	-0.006136011
70	0x3e597e57	0.21239601
71	0x3dbb81cb	0.091556154
72	0xbe9948c7	-0.29938337
73	0x3c2e1b0a	0.010626564
74	0x3e9144e4	0.28372872
75	0x3e2ae09c	0.16687244
76	0xbdde40fe	-0.1085224
77	0x3e88346d	0.26602498
78	0x3e640dfc	0.2227096
79	0xbc0289d3	-0.00796743
80	0x3cc51fd3	0.024063027
81	0x3e146408	0.14491284
82	0xbe76f6b8	-0.24117553
83	0xbe6256ac	-0.22103375
84	0x3e64e594	0.22353202
85	0x3eca4ea1	0.39513114
86	0x3e678a66	0.22611389
87	0x3eeeb69b	0.46623692
88	0x3dfa299c	0.122149676
89	0x3e6b9e12	0.23009518
90	0xbd2fe1f8	-0.04294011
91	0xbd08727f	-0.033312317
92	0x3eb023ff	0.34402463
93	0x3ebee230	0.37281942
94	0x3e97d887	0.29657385
95	0x3d3497d8	0.044090122
96	0x3e897f10	0.26854753
97	0x3ed2278f	0.41045806
98	0x3e44c237	0.19214712
99	0x3edc4b5d	0.43026248
100	0xbd042e33	-0.03227062
101	0x3d2a50b0	0.041580856
102	0x3d44cd23	0.048047196
103	0x3d286741	0.041114096
104	0x3e4cc814	0.19998199
105	0x3ca544de	0.02017444
106	0x3d1c0e13	0.03809936
107	0x3bd13f56	0.006385724
108	0x3e221814	0.15829498
109	0x3e3baebe	0.18328378
110	0xbdb12a09	-0.08650596
111	0xbcbadd94	-0.022810735
112	0x3e074e61	0.13213493
113	0x3e5da6a5	0.21645601
114	0x3bb7d0db	0.0056096143
115	0x3ddb7f96	0.107176945
116	0x3e3e02a2	0.18555692
117	0xbcf573ad	-0.029962385
118	0xbd4c37a7	-0.04985776
119	0x3db47858	0.08812016
120	0x3df4c9c5	0.11952547
121	0xbd9c14a3	-0.07621124
122	0xbbcf52ad	-0.0063269944
123	0x3d0c3516	0.034230314
124	0x3ec27c47	0.3798544
125	0xbd6ca0e2	-0.057770617
126	0xbdfac593	-0.122447155
127	0x3dd5492a	0.104143456
128	0xbd334640	-0.043768167
129	0xbe0f6d3d	-0.14006515
130	0xbd1a45e7	-0.03766432
131	0xbdc808bc	-0.09767291
132	0xbd91b422	-0.07114436
133	0xbd43e0be	-0.047821753
134	0xbe1959ef	-0.14975713
135	0x3e715eed	0.23571368
136	0xbc4c3012	-0.012462633
137	0x3b16c9d8	0.0023008492
138	0x3cfd7f8c	0.030944608
139	0x3e3a277f	0.18179129
140	0x3d7c7509	0.06163505
141	0x3e15a114	0.14612228
142	0x3d6c8bc9	0.057750497
143	0x3d65ed50	0.056134522
144	0x3e8a4f5f	0.2701368
145	0xbce20169	-0.027588563
146	0x3d262367	0.040561106
147	0x3dc67685	0.096905746
148	0x3e78df16	0.2430385
149	0x3deab34b	0.11459979
150	0x3ed18519	0.40921858
151	0x3d992011	0.07476819
152	0x3d6a4fad	0.05720489
153	0xbca56158	-0.020188019
154	0x3d4a7e2e	0.04943674
155	0x3e6dfa9e	0.23240134
156	0x3e29ada8	0.16570151
157	0x3e08557d	0.13313861
158	0x3e1b6c04	0.15177923
159	0x3ecbfcc1	0.39841273
160	0x3e1aac9f	0.15104912
161	0x3dc4296d	0.09578214
162	0x3d0e7846	0.03478267
163	0x3d66bded	0.05633347
164	0x3e4f3125	0.20233591
165	0x3e09a0e7	0.13440286
166	0x3d840a6e	0.06447302
167	0x3d224d1e	0.039624326
168	0x3e380845	0.17971905
169	0xbc1c841c	-0.009552982
170	0x3de523c3	0.11188462
171	0x3eba834d	0.364283
172	0xbddc8253	-0.10767045
173	0xbdd029cc	-0.10164222
174	0x3e4a4390	0.19752336
175	0x3bcd4dfd	0.0062654004
176	0x3e236b64	0.15958935
177	0x3dab6aa2	0.08369948
178	0xbd19b496	-0.037525736
179	0x3e43248e	0.19056913
180	0x3e055a94	0.13022834
181	0xbe057cc7	-0.1303588
182	0xbdae96e8	-0.08524877
183	0xbd2f2e81	-0.04276896
184	0x3d3103eb	0.043216627
185	0x3df94090	0.121705174
186	0xbc43059e	-0.011903195
187	0xbc858840	-0.01630032
188	0x3d8cc508	0.06873518
189	0xbdb68b50	-0.089132905
190	0x3cdd78fd	0.02703523
191	0x3e20eeb9	0.15716065
192	0x3dc1d3f3	0.09464254
193	0x3e3558d1	0.17709662
194	0x3e2233ca	0.15840068
195	0x3e10c9d5	0.14139493
196	0x3e50b408	0.20381176
197	0x3e794528	0.24342787
198	0xbc29bf9e	-0.0103606265
199	0x3d810d7f	0.06301402
200	0x3ddd06bc	0.107923
201	0x3d867836	0.06565897
202	0x3d0c456e	0.0342459
203	0x3e339027	0.17535459
204	0xbbc51ce6	-0.006015408
205	0x3de92426	0.11383848
206	0x3df69981	0.12040997
207	0x3e48640a	0.19569412
208	0x3e5f02a5	0.21778353
209	0x3d349a96	0.044092737
210	0xbd38ce76	-0.04511877
211	0x3e33cd47	0.17558776
212	0x3e5e37f9	0.2170104
213	0x3e80239a	0.25027162
214	0x3daa954e	0.08329259
215	0xbdb11e84	-0.086483985
216	0xbda17999	-0.07884521
217	0x3e2f95e8	0.17147028
218	0x3e81d091	0.25354436
219	0x3c1dbb79	0.0096272165
220	0xbdddddec	-0.10833344
221	0xbd687566	-0.056752585
222	0x3d1e97c8	0.03871897
223	0x3cb56604	0.022143371
224	0x3dc0920f	0.094028585
225	0xbe1646e1	-0.14675476
226	0x3d367f8d	0.044555236
227	0x3d96591a	0.073412135
228	0xbea01b6c	-0.3127092
229	0xbd8fe872	-0.07026757
230	0xbe0c3ac7	-0.13694297
231	0x3d67909e	0.056534402
232	0x3d3046bb	0.043036204
233	0xbdbd2956	-0.092364
234	0xbd797d0b	-0.060910266
235	0xbe4fca4c	-0.20292014
236	0x3d89a86a	0.067215756
237	0xbe3dccac	-0.18535107
238	0xbd4eabb6	-0.050456725
239	0x3e0797fa	0.13241568
240	0xbe9a8bfd	-0.30184928
241	0x3d90534a	0.07047136
242	0x3e29e9df	0.16593121
243	0x3e091287	0.13385974
244	0xbc4391a3	-0.011936578
245	0x3d19609a	0.037445642
246	0x3e98ff4b	0.29882273
247	0xbe00ab1a	-0.1256527
248	0x3d5c0cfc	0.05372332
249	0xbda08e96	-0.07839696
250	0x3db50132	0.088381186
251	0x3e3ddee2	0.18542054
252	0xbe66c8b1	-0.22537495
253	0xbd8f8fad	-0.07009826
254	0xbd42c732	-0.04755325
255	0x3d86798c	0.06566152

encoder.0.bias f4 [32]
0	0x3d272c34	0.04081364
1	0x3e90f87d	0.28314582
2	0x3e607505	0.2191964
3	0x3d92961a	0.07157536
4	0xbcd3076d	-0.025760377
5	0x3dc32dd6	0.09530227
6	0x3c755ef2	0.01497625
7	0x3e370a47	0.17875014
8	0x3e06170b	0.13094728
9	0x3bb12dfe	0.005407094
10	0x3e1c0028	0.15234435
11	0xbe4bfe0a	-0.19921127
12	0x3dac2ed2	0.08407368
13	0x3d841d39	0.06450886
14	0xbd2223f5	-0.039585073
15	0x3e56c959	0.20975246
16	0x3eae6491	0.340611
17	0x3c8ea72e	0.017413702
18	0x3d367a2d	0.04455011
19	0x3e9445da	0.28959543
20	0xbe055bbe	-0.13023278
21	0xbd9ee018	-0.07757586
22	0x3e6c97f3	0.23104839
23	0xbd54ecef	-0.05198377
24	0xbe7a005e	-0.24414203
25	0x3cb4019b	0.021973422
26	0xbd9a702d	-0.07540927
27	0x3e3bc3e6	0.18336448
28	0xbd6e8aff	-0.058238026
29	0x3dbbbc73	0.09166803
30	0xbc5b1598	-0.013371848
31	0x3debb37d	0.11508844

encoder.2.weight f4 [24, 32]
0	0xbb310340	-0.0027009994
1	0x3e8b49a2	0.27204615
2	0x3df8f575	0.12156192
3	0x3d1a658a	0.03769449
4	0xbdd63cf7	-0.10460847
5	0xbe50cb8d	-0.20390148
6	0xbe3a53fb	-0.18196099
7	0x3e5a6bc0	0.21330166
8	0xbca88436	-0.020570856
9	0x3df68067	0.120362096
10	0x3dc67fc4	0.09692338
11	0xbe59b8fc	-0.21261972
12	0x3e3615cf	0.17781757
13	0x3d0f2147	0.034943845
14	0x3d85455c	0.0650737
15	0x3df17043	0.1178899
16	0x3e96f323	0.29482374
17	0xbdc05662	-0.09391476
18	0x3e36048f	0.17775176
19	0x3e33b953	0.17551164
20	0xbc35701a	-0.01107409
21	0x3c2e5e6a	0.010642627
22	0xbe15a4a2	-0.14613584
23	0x3df21787	0.11820894
24	0xbe88b59e	-0.26701063
25	0x3d0cb651	0.034353558
26	0xbde8fdae	-0.113765106
27	0x3e2cb82f	0.16867135
28	0xbe012973	-0.12613468
29	0xbecd4111	-0.40088704
30	0x3dc35aa3	0.09538772
31	0xbeb08d96	-0.34483021
32	0xbd6aa5d7	-0.057287063
33	0x3e9144c6	0.28372782
34	0x3dbc1975	0.09184543
35	0xbe270da0	-0.16313791
36	0xbd7dbe85	-0.06194927
37	0x3ef029b5	0.4690682
38	0xbd804588	-0.06263262
39	0x3e7e562b	0.24837558
40	0x3c56c4af	0.013108416
41	0xbbda51cf	-0.0066625844
42	0xbc9388d0	-0.018009573
43	0xbe89665e	-0.26835912
44	0x3dc1f43b	0.094704114
45	0x3e8f9cce	0.2804932
46	0x3d3c4724	0.045966282
47	0xbdcb4fad	-0.09927306
48	0x3d9559d4	0.07292524
49	0x3e428500	0.18996048
50	0x3cb959e5	0.022625873
51	0x3c8e8a8b	0.017400047
52	0xbc18f96e	-0.009336812
53	0x3dcdd67b	0.100506745
54	0x3e068541	0.1313677
55	0x3e116b4e	0.1420109
56	0x3f1dc91a	0.6163498
57	0xbdb3c26a	-0.08777316
58	0x3e68dc03	0.22740178
59	0xbd5dd9c9	-0.054162774
60	0x3da0e331	0.07855833
61	0x3e600c25	0.21879633
62	0xbd48157d	-0.048848618
63	0xbda5cef6	-0.08096115
64	0xbe1ba456	-0.15199408
65	0xbdf9ddba	-0.12200494
66	0xbd0bfeb0	-0.034178436
67	0xbd9cbf1d	-0.076536395
68	0x3e27d8c7	0.16391288
69	0xbe00fba0	-0.12595987
70	0xbe2bc002	-0.16772464
71	0xbd128506	-0.035771392
72	0xbe375126	-0.1790205
73	0x3de8ac68	0.11361009
74	0x3dc03151	0.09384406
75	0xbd9d07de	-0.07667516
76	0xbe008705	-0.12551506
77	0x3d4a51bc	0.049394354
78	0xbd889f14	-0.06670967
79	0xbd84260b	-0.064525686
80	0xbd6f7271	-0.05845875
81	0xbbf7c358	-0.0075611286
82	0x3dd96929	0.10615761
83	0xbd65c3e3	-0.056095015
84	0x3d9063ef	0.07050311
85	0x3e0d182e	0.13778755
86	0xbcef0acf	-0.029179959
87	0xbe339fcc	-0.17541426
88	0xbdb1b949	-0.086779185
89	0x3bc56959	0.0060245213
90	0x3b15ecd4	0.0022876756
91	0x3d0e6cc0	0.03477168
92	0xbd812dc5	-0.06307558
93	0x3deafaf5	0.114736475
94	0xbcff5996	-0.031170648
95	0x3e06c256	0.13160071
96	0x3e4dc38e	0.2009413
97	0x3dd65112	0.10464682
98	0x3e5c96f5	0.2154196
99	0x3e4bd02b	0.19903629
100	0xbc34c2c5	-0.011032765
101	0xbe3ec667	-0.18630372
102	0xbf0ae6d5	-0.5425847
103	0x3d8e1db4	0.06939259
104	0xbdde664c	-0.10859355
105	0xbd0fc210	-0.03509718
106	0xbd7990cc	-0.060929105
107	0xbe9cfb84	-0.3066064
108	0x3e9d44ce	0.30716556
109	0x3e493f05	0.19652946
110	0x3de8a368	0.11359292
111	0x3e5dd2a2	0.21662381
112	0x3e4620dd	0.19348474
113	0x3de4d6d8	0.11173791
114	0x3a1849eb	0.00058093545
115	0xbd9e24c8	-0.07721859
116	0x3ed32e56	0.4124629
117	0x3e2a93cc	0.16657943
118	0x3e071fcb	0.13195722
119	0x3e8daa31	0.27668908
120	0x3f313df4	0.6923516
121	0x3e71f62b	0.23629062
122	0xbb717dc4	-0.0036848644
123	0x3c3115d6	0.010808429
124	0x3ee2f78a	0.44329482
125	0xbd4ce70a	-0.050025024
126	0x3dc40a0f	0.09572231
127	0xbe9a5c44	-0.30148518
128	0xbd411782	-0.04714156
129	0x3de3fe8a	0.11132534
130	0xbd7e936a	-0.062152304
131	0x3e6f74df	0.23384427
132	0x3e1be367	0.15223466
133	0xbdde028e	-0.10840331
134	0x3e2c4d5e	0.16826388
135	0x3d8e30dd	0.06942914
136	0x3e382f7c	0.17986864
137	0x3d6cfe3e	0.05785965
138	0x3dcadf75	0.09905902
139	0xbdfc62df	-0.12323546
140	0x3dc25adb	0.094899856
141	0xbe111ac6	-0.1417037
142	0x3e702981	0.23453332
143	0x3e1007e6	0.14065513
144	0xbce2d0f1	-0.027687522
145	0x3defbaf9	0.11705584
146	0xbdf9a55a	-0.121897414
147	0x3e392da9	0.18083824
148	0xbbb94d1c	-0.005654944
149	0x3c10c94d	0.008837056
150	0xbb182280	-0.0023213923
151	0xbce973cf	-0.028497605
152	0xbea38252	-0.31935364
153	0xbc8a9681	-0.016917469
154	0xbe8bd6f7	-0.27312443
155	0x3da1b801	0.07896424
156	0xbe35d759	-0.1775793
157	0xbe54d57f	-0.20784567
158	0x3d16ad2c	0.036786243
159	0xbe2e24b9	-0.17006196
160	0x3da26a82	0.07930471
161	0x3e65bc86	0.22435197
162	0xbe35d59e	-0.1775727
163	0x3e4f058f	0.20216964
164	0x3e8b976b	0.2726396
165	0x3e9bb1e3	0.30409154
166	0x3d996ec9	0.07491834
167	0x3dea3280	0.11435413
168	0x3e215ecb	0.15758817
169	0x3ea993f3	0.3312069
170	0x3c8f44da	0.017488886
171	0x3d865091	0.065583356
172	0xbb7c44d0	-0.0038493164
173	0x3e803fe2	0.2504874
174	0x39c0adee	0.00036750681
175	0x3dc01a21	0.09379984
176	0xbdab2d34	-0.08358231
177	0x3eaf3c6a	0.3422578
178	0x3e81f567	0.2538254
179	0xbd664fda	-0.056228496
180	0x3d341d19	0.043973062
181	0xbd672bd8	-0.056438297
182	0x3da21167	0.079134755
183	0x3df21093	0.118195675
184	0x3f1159b7	0.5677752
185	0x3e3ecc4b	0.18632619
186	0x3ea698f9	0.32538584
187	0xbb4a0911	-0.0030828158
188	0x3e93a71f	0.2883844
189	0x3e138145	0.14404781
190	0x3e493d38	0.1965226
191	0x3e2da226	0.16956386
192	0x3e4e2335	0.20130618
193	0x3df44861	0.11927868
194	0xbd6d88ae	-0.057991676
195	0x3ccc1b84	0.024915464
196	0x3dda9da8	0.10674602
197	0x3e81193a	0.2521456
198	0xbd6d0b12	-0.057871886
199	0x3e9dd3a7	0.3082554
200	0x3e139768	0.14413226
201	0x3e73cbe2	0.23808244
202	0x3e817482	0.252842
203	0xbe840415	-0.25784364
204	0x3d863878	0.06553739
205	0x3e337a57	0.17527138
206	0xbab700f5	-0.0013962077
207	0x3e0b6255	0.1361173
208	0xbc970b8d	-0.018438125
209	0x3dc1cd7e	0.09463023
210	0x3e9f8e27	0.3116314
211	0x3e516e04	0.20452124
212	0x3eb39a13	0.35078487
213	0xbe28778d	-0.16451855
214	0x3e046792	0.12930134
215	0x3e0792c6	0.13239583
216	0x3f1ea6ed	0.6197346
217	0x3e7cd523	0.2469068
218	0x3e2a86d9	0.16653003
219	0x3e17533e	0.14777848
220	0x3e24a1a5	0.16077287
221	0xbda5c001	-0.080932625
222	0xbdda867e	-0.106701836
223	0x3e0606d3	0.1308854
224	0xbd802d64	-0.062586576
225	0xbdef6331	-0.11688841
226	0x3dcca67f	0.09992694
227	0x3d12b2c1	0.035815004
228	0x3d4025eb	0.04691116
229	0xbdc2d525	-0.0951331
230	0xbca164e9	-0.019701438
231	0xbe489b46	-0.19590482
232	0xbe6a2a2c	-0.2286765
233	0xbe8234dd	-0.25430956
234	0x3e15577b	0.14584152
235	0x3cfaab9a	0.030599404
236	0x3d58b734	0.05290909
237	0xbe70c5bd	-0.23512931
238	0x3e2737e0	0.16329908
239	0xbc9c2366	-0.019059848
240	0xbd3118db	-0.043236595
241	0xbd015e5f	-0.03158414
242	0x3c0e5806	0.008687979
243	0x3db03e3c	0.0860562
244	0xbe463604	-0.19356543
245	0xbdb79f5a	-0.08965941
246	0x3df1137a	0.11771293
247	0x3df220ba	0.11822648
248	0x3e9284fb	0.2861708
249	0xbc05db42	-0.008169951
250	0xbd31faff	-0.04345226
251	0x3e4792c2	0.19489577
252	0xbd5f10ae	-0.054459266
253	0x3cca9a38	0.02473174
254	0x3ded7551	0.11594642
255	0x3dc49115	0.09597985

encoder.2.bias f4 [24]
0	0x3e5ef4b9	0.21773042
1	0x3e4db022	0.2008672
2	0x3dfaeeaa	0.12252553
3	0x3cd36f5f	0.025809942
4	0x3d930787	0.0717917
5	0xbe4d3395	-0.20039208
6	0xbe3e9c8d	-0.18614407
7	0xbd899bed	-0.067191936
8	0xbd5702a6	-0.05249276
9	0x3e1360bf	0.14392374
10	0x3e113ffb	0.14184563
11	0x3e8e44b8	0.27786803
12	0x3e8b63aa	0.27224475
13	0xbe5a4936	-0.2131699
14	0x3e048f83	0.1294537
15	0x3dd6a9e8	0.10481626
16	0x3e43004e	0.19043085
17	0xbdb229b0	-0.086993575
18	0x3e7c70c0	0.24652386
19	0x3e203618	0.15645635
20	0x3e42f7c4	0.19039828
21	0x3dfefb89	0.1245032
22	0x3dcaf635	0.099102415
23	0x3d8e2d32	0.06942214

encoder.4.weight f4 [20, 24]
0	0x3d8bc91c	0.06825468
1	0x3d503311	0.05082995
2	0xbe19e998	-0.15030515
3	0x3e9dc1e2	0.30811983
4	0x3e06601c	0.131226
5	0x3e2b4280	0.16724586
6	0x3e7cfa67	0.24704896
7	0x3d5818d4	0.052758053
8	0xbce06f56	-0.02739684
9	0x3dcd44fb	0.100229226
10	0xbd365b4d	-0.044520665
11	0x3db3c4ae	0.08777748
12	0x3e1a23ce	0.15052721
13	0xbe045a52	-0.1292508
14	0x3ecdbaee	0.4018168
15	0x3e424646	0.1897212
16	0x3ea9ccb5	0.33163992
17	0x3e9dd9fe	0.30830377
18	0x3e89641a	0.26834184
19	0xbcb7dddc	-0.022444658
20	0x3d11f063	0.03562964
21	0x3e68a504	0.22719198
22	0x3e183c54	0.14866763
23	0xbccb19cf	-0.02479258
24	0xbe1d9609	-0.15389265
25	0xbe4ac4ed	-0.19801684
26	0xbc824e32	-0.015906427
27	0xbe4b883e	-0.19876191
28	0x3e837a47	0.25679228
29	0x3d83f275	0.064427294
30	0x3d9c1dc3	0.07622864
31	0xbe5b3664	-0.21407467
32	0x3e2219e3	0.15830187
33	0xbd8d7678	-0.06907362
34	0x3de7aebb	0.11312624
35	0xbb7968df	-0.0038056893
36	0x3e7004ad	0.23439284
37	0x3dbc839f	0.09204792
38	0x3f0136a7	0.5047402
39	0xbe47ebd6	-0.19523558
40	0x3e6bb054	0.23016483
41	0x3bc414fc	0.005983947
42	0x3e50bd34	0.20384675
43	0xbdcaeab0	-0.09908044
44	0xbea76715	-0.32695833
45	0x3e5fb191	0.2184508
46	0x3e71ba6e	0.23606274
47	0x3e3d0395	0.18458398
48	0x3ddbe1d5	0.107364334
49	0x3e9391b6	0.28822106
50	0xbda1a240	-0.07892275
51	0x3dd187c6	0.10230975
52	0x3d40cd36	0.047070704
53	0x3df8f59f	0.121562235
54	0x3e910c5a	0.28329736
55	0x3c213568	0.009839393
56	0x3e2890ca	0.16461483
57	0x3dd745fc	0.10511395
58	0x3dc43a52	0.09581436
59	0x3e378897	0.17923199
60	0x3dcd6146	0.10028319
61	0xbdc75015	-0.09732071
62	0xbf35b9cb	-0.7098662
63	0x3e921fcd	0.28539887
64	0x3e1b77ff	0.15182494
65	0xbd46f6fe	-0.048575394
66	0x3d9e1ddc	0.07720539
67	0x3f40ab75	0.7526162
68	0x3e8490f1	0.25891832
69	0xbaf91227	-0.0019002602
70	0x3e268989	0.16263403
71	0xbe7da07d	-0.24768253
72	0xbe2e30cc	-0.17010802
73	0xbda95583	-0.08268263
74	0x3e03307e	0.12811467
75	0x3d17685d	0.036964763
76	0xbd891f57	-0.06695431
77	0xbe18caf7	-0.14921175
78	0x3c7cfaf9	0.015440696
79	0x3e154648	0.14577591
80	0xbc18b573	-0.009320605
81	0xbe16ca5c	-0.14725631
82	0xbe44777f	-0.19186209
83	0x3dc61da9	0.09673626
84	0xbdfbd2f0	-0.122960925
85	0x3d366878	0.044533223
86	0x3e3f3697	0.18673168
87	0xbe039a64	-0.12851864
88	0x3c6fc17d	0.014633534
89	0xbde4d2ad	-0.11172996
90	0xbe09953b	-0.13435833
91	0x3dce85fe	0.10084151
92	0xbe545e7b	-0.20739166
93	0x3e1eb6ec	0.15499467
94	0x3e1b30b8	0.15155303
95	0xbdd1869b	-0.10230752
96	0x3dd4df47	0.10394149
97	0xbe1383f4	-0.14405805
98	0x3d9b1902	0.07573129
99	0x3dd7a600	0.10529709
100	0x3c3a520d	0.0113721015
101	0xbd9b1ac4	-0.075734645
102	0xbe68452f	-0.22682641
103	0xbdc6bfdc	-0.09704563
104	0xbdf41183	-0.119174026
105	0xbcbaddf0	-0.022810906
106	0x3d09dab3	0.033655833
107	0xbde28dd5	-0.110622086
108	0xbde5f718	-0.1122877
109	0x3cf124a8	0.029436424
110	0x3db798ed	0.08964715
111	0x3ddf4e63	0.10903623
112	0x3ce055ba	0.027384628
113	0xbe066413	-0.13124113
114	0x3ddc791f	0.107652895
115	0x3db11ff7	0.08648675
116	0xbcfb18a8	-0.030651405
117	0xbde48bee	-0.11159502
118	0xbddd3914	-0.108019024
119	0x3dec5a97	0.11540716
120	0x3d973aec	0.07384285
121	0x3e8a38b3	0.26996383
122	0xbe382e6a	-0.17986456
123	0x3e0e2a66	0.13883361
124	0x3d867448	0.06565148
125	0x3e9e4d89	0.3091853
126	0xbd27db2a	-0.040980496
127	0x3e835d8a	0.25657302
128	0x3d3357a8	0.043784767
129	0x3e5294d6	0.20564589
130	0xbe1975c9	-0.14986338
131	0x3e65ed9e	0.22453925
132	0x3e7bd113	0.24591474
133	0x3d2e34f2	0.04253096
134	0x3f3023a9	0.68804413
135	0x3e05ea35	0.13077624
136	0x3df1e56d	0.118113376
137	0x3e2caa44	0.16861826
138	0x3e18c085	0.1491719
139	0x3f446105	0.7671054
140	0xbdee218b	-0.116274916
141	0x3e9a2389	0.30105236
142	0x3e629d12	0.2213023
143	0x3e285b18	0.16441
144	0x3e38b18e	0.18036482
145	0xbd17aa25	-0.037027497
146	0xbccff89a	-0.025387097
147	0xbcf1ffe4	-0.029540963
148	0x3ea4270c	0.3206104
149	0xbdc4549a	-0.09586449
150	0x3a383fda	0.00070285576
151	0xbf81df0d	-1.0146195
152	0xbd4bac60	-0.049724936
153	0x3c849fbe	0.016189452
154	0x3e028284	0.127451
155	0x3e2365f8	0.15956867
156	0x3e3d1a43	0.1846705
157	0xbf00555d	-0.50130254
158	0x3e25af9a	0.16180268
159	0xbdc7e284	-0.09760001
160	0x3dfc1d5d	0.12310288
161	0x3d1513c0	0.03639579
162	0x3ddf8963	0.10914876
163	0xbdb57b93	-0.088614605
164	0x3c09325c	0.008373823
165	0x3df4f6f1	0.11961163
166	0x3e7d8c59	0.2476057
167	0x3e3188af	0.17337297
168	0x3e69cc53	0.2283185
169	0x3d9db377	0.07700246
170	0xbe462ce7	-0.19353066
171	0x3e8bbc4a	0.2729209
172	0x3da2f582	0.07956983
173	0x3b8323e9	0.0040020836
174	0x3e47f2e5	0.1952625
175	0x3edd5715	0.432305
176	0xbdfe37bb	-0.124129735
177	0x3e50d664	0.20394284
178	0x3d9ceccc	0.07662353
179	0x3d518488	0.051151782
180	0xbe210bbc	-0.15727133
181	0x3e87b70f	0.2650685
182	0xbe8f256b	-0.27958235
183	0x3e087d76	0.1332911
184	0xbd9b2068	-0.075745404
185	0xbc720a69	-0.01477299
186	0xbe1d24db	-0.1534609
187	0x3e0f099d	0.13968511
188	0x3dfbe1fe	0.12298964
189	0xbe0904f4	-0.13380796
190	0xbd594c33	-0.053051185
191	0x3d89b810	0.0672456
192	0xbe1bec91	-0.15226962
193	0x3d82ad5a	0.063807204
194	0x3d8892a2	0.06668593
195	0x3ad65190	0.0016351212
196	0xbde45d0e	-0.11150561
197	0x3e922740	0.2854557
198	0x3eab73ae	0.33486694
199	0x3e620493	0.22072057
200	0xbe3ab0b1	-0.18231465
201	0x3e25dcec	0.16197556
202	0xbd533783	-0.051566612
203	0xbd66ef62	-0.056380637
204	0x3e700719	0.23440208
205	0x3cc78e9d	0.024359995
206	0xbefef05a	-0.4979275
207	0x3e736d2c	0.23772115
208	0xbd950505	-0.07276348
209	0x3e3e12bf	0.18561839
210	0xbcc027bf	-0.023456452
211	0x3e933c46	0.28756922
212	0x3e07693e	0.1322374
213	0x3d5948aa	0.053047813
214	0x3dbc2968	0.09187585
215	0xbc05daac	-0.008169811
216	0xbe00a5dd	-0.12563272
217	0x3dae6adc	0.085164756
218	0xbdf5cc27	-0.120018296
219	0xbe61ee50	-0.22063565
220	0x3cf18af6	0.029485207
221	0x3e2d2102	0.16907123
222	0x3e1ff43b	0.1562051
223	0xbe499581	-0.19685937
224	0x3e019cba	0.12657443
225	0x3da3df95	0.08001629
226	0xbe15884c	-0.14602774
227	0x3e1fb044	0.15594584
228	0x3e776cda	0.24162617
229	0x3cf384d4	0.029726423
230	0xbd451e6b	-0.048124712
231	0x3d401fdc	0.046905383
232	0x3dc11b96	0.0942909
233	0xbb062b99	-0.0020472764
234	0xbcc893ea	-0.024484593
235	0x3f40e42a	0.7534815
236	0xbe946c22	-0.2898875
237	0x3ec6b376	0.38808793
238	0x3e861377	0.26186725
239	0x3e1a7835	0.15084918
240	0x3d982a87	0.074299864
241	0xbd827279	-0.0636949
242	0xbe0ac07d	-0.13549991
243	0x3eca6614	0.39531004
244	0x3dfe514c	0.1241785
245	0xbd3df2aa	-0.046374
246	0x3e4ea00c	0.2017824
247	0xbea18443	-0.3154622
248	0x3e33607c	0.17517275
249	0xbd5a0f46	-0.053237222
250	0x3ddc2b1c	0.1075041
251	0xbc82cd2e	-0.015966978
252	0x3e8038a7	0.25043222
253	0xbeac3ed6	-0.3364169
254	0x3f2ff88a	0.68738616
255	0x3e8723ed	0.26394597

encoder.4.bias f4 [20]
0	0x3e0debc5	0.1385947
1	0xbe4c4c22	-0.19950917
2	0xbc6740b7	-0.01411455
3	0x3d4d02aa	0.05005137
4	0x3e307c5a	0.17234936
5	0x3dece410	0.11566937
6	0x3d4a5e24	0.049406186
7	0xbdc3a009	-0.09552009
8	0x3d9c8b61	0.07643772
9	0x3e32193d	0.1739244
10	0x3e855387	0.2604029
11	0xbcaf1af1	-0.021375151
12	0xbdd2af14	-0.102873
13	0x3e851f8a	0.26000625
14	0x3e0e4d9d	0.13896795
15	0xbdcc5365	-0.09976844
16	0x3ca53a0b	0.020169279
17	0xbe342639	-0.17592706
18	0x3bf62f89	0.007512991
19	0x3d73f128	0.059556156

encoder.6.weight f4 [16, 20]
0	0xbd79cf47	-0.06098869
1	0x3e2381fd	0.15967555
2	0x3e5e6381	0.21717645
3	0xbe47aa8b	-0.1949865
4	0xbdf1ec7e	-0.118126854
5	0x3e3270cb	0.1742584
6	0x3e986565	0.29764858
7	0x3d7805ff	0.060552593
8	0xbdab6faf	-0.08370911
9	0x3e5a0867	0.21292268
10	0x3d69acc9	0.057049546
11	0xbde46c0e	-0.11153422
12	0xbf1bbabb	-0.60831803
13	0xbbd91600	-0.006624937
14	0x3c0da719	0.008645796
15	0x3eb02ad5	0.34407678
16	0xbe39594b	-0.18100469
17	0xbeba3f20	-0.36376286
18	0x3d46a860	0.04850042
19	0x3e3c289b	0.18374865
20	0x3e960967	0.29304048
21	0x3ebcaa52	0.36848694
22	0xbe33d8ad	-0.17563124
23	0x3d6c0413	0.057621073
24	0xbe48fc65	-0.19627531
25	0x3e78a24d	0.24280663
26	0x3e694324	0.22779518
27	0xbe0db447	-0.13838302
28	0x3cfb05c0	0.03064239
29	0x3e3296f4	0.17440397
30	0x3ea96029	0.33081177
31	0x3d57f631	0.05272502
32	0xbec0a787	-0.37627813
33	0xbeab4f9b	-0.33459172
34	0x3c8a1f44	0.016860612
35	0x3e21a68d	0.1578619
36	0x3ef3b8cf	0.47601935
37	0xbe70c3a1	-0.23512127
38	0xbd78f852	-0.06078369
39	0x3d508dfa	0.05091665
40	0x3e58c2b3	0.21168022
41	0x3ea46072	0.32104832
42	0xbe0c1962	-0.13681558
43	0xbe2935e1	-0.1652446
44	0xbe0c5461	-0.13704063
45	0x3e7c3e18	0.24633062
46	0x3df14b67	0.1178196
47	0x3d2cb5e8	0.042165667
48	0xbd747239	-0.059679244
49	0x3e94aa1a	0.29036027
50	0xbd701076	-0.05860945
51	0x3d652236	0.05594083
52	0xbf093c0c	-0.5360725
53	0xbe9a9d24	-0.30198014
54	0x3e0132c5	0.12617023
55	0x3ea73e37	0.32664654
56	0x3e1a6c2b	0.15080325
57	0xbe19c39d	-0.15016027
58	0x3dc589fa	0.096454576
59	0x3d2cf885	0.042229194
60	0xbdd231c7	-0.102634005
61	0x3e24bc97	0.16087566
62	0x3e520e6e	0.20513317
63	0x3dd7f5b5	0.10544912
64	0x3e5d2109	0.21594633
65	0xbe062702	-0.13100818
66	0xbd9b7561	-0.075907476
67	0x3e1dbff1	0.15405251
68	0xbe1a22b3	-0.15052299
69	0xbe4be12b	-0.19910114
70	0xbe58c9c3	-0.21170716
71	0xbe569be5	-0.20957907
72	0x3e1f29da	0.15543309
73	0xbb9c4a54	-0.004769603
74	0xbdfb50bd	-0.12271259
75	0xbd069047	-0.032852437
76	0xbdc0c838	-0.09413189
77	0xbe1734c5	-0.14766224
78	0x3dca69c2	0.09883453
79	0xbe4d0090	-0.20019746
80	0x3e44b08e	0.19207975
81	0xbe5d245b	-0.215959
82	0x3ebcbb46	0.36861628
83	0xb912835e	-0.00013972583
84	0x3e022327	0.12708722
85	0xbc4aa7d8	-0.012369119
86	0x3dae304e	0.08505307
87	0xbd3eaddc	-0.046552524
88	0x3e895c2b	0.2682813
89	0x3ea3f07c	0.32019413
90	0xbe2d07c4	-0.16897494
91	0x3ce57a42	0.028012399
92	0x3f165ce4	0.5873549
93	0x3eaed0bb	0.34143624
94	0x3dd03754	0.10166803
95	0x3d3a68c8	0.045510083
96	0xbe5bcf1d	-0.21465726
97	0x3e963d1f	0.29343507
98	0x3e5facdf	0.21843289
99	0x3e1b302b	0.15155093
100	0xbdd834a2	-0.10556914
101	0x3e29f352	0.16596726
102	0xbe6f79f8	-0.23386371
103	0xbe58d543	-0.21175103
104	0x3b09bf18	0.0021018442
105	0x3da9b34a	0.0828615
106	0xbde25f06	-0.110532805
107	0xbe2abfb3	-0.1667469
108	0xbe47c213	-0.19507627
109	0x3e123b72	0.14280489
110	0xbe3e348e	-0.18574736
111	0xbd99b54a	-0.07505281
112	0x3daf761b	0.08567449
113	0xbd57da4c	-0.05269842
114	0xbd944f09	-0.07241637
115	0x3dca0f44	0.09866193
116	0x3d964a2a	0.073383644
117	0xbe061cbe	-0.13096902
118	0x3e606f52	0.21917465
119	0x3bc53ce9	0.006019224
120	0xbe019c2f	-0.12657236
121	0x3e0f9d0a	0.1402475
122	0xbdcab7ec	-0.098983616
123	0x3d65574a	0.05599145
124	0xbde71a47	-0.11284309
125	0xbe528ee9	-0.20562328
126	0xbe002603	-0.125145
127	0xbe401169	-0.18756641
128	0xbe242c0f	-0.16032432
129	0x3c9173eb	0.01775547
130	0xbe14e9e8	-0.14542353
131	0xbe49ddad	-0.19713469
132	0xbe02734c	-0.12739295
133	0xbd7ae484	-0.061253086
134	0x3d8d0f3e	0.06887673
135	0x3dfaf214	0.12253204
136	0x3c9a8701	0.018863203
137	0x3e227312	0.15864208
138	0xbe09cd50	-0.13457227
139	0xbe40ed41	-0.18840505
140	0x3d92b291	0.07162965
141	0x3e9d93f0	0.3077693
142	0xbe018b23	-0.12650733
143	0xbe278d60	-0.16362524
144	0x3defc66e	0.11707769
145	0x3e01e51f	0.12685059
146	0x3e478cd9	0.19487323
147	0xbeb698c7	-0.35663435
148	0xbd774083	-0.060364258
149	0x3e74da97	0.2391151
150	0x3c1c620f	0.009544863
151	0xbe3e2edd	-0.18572564
152	0xbeafccb2	-0.34335858
153	0x3dfdb896	0.123887226
154	0xbe19570a	-0.14974609
155	0xbcf621bd	-0.030045385
156	0xbe0422e4	-0.12903935
157	0xbe4f7e91	-0.20263125
158	0xbe0e18f3	-0.13876705
159	0xbde1fb53	-0.110342644
160	0xbcfe886b	-0.031070909
161	0xbddc0d34	-0.10744706
162	0x3d867e80	0.06567097
163	0xbe31d511	-0.17366435
164	0x3de5ad16	0.11214654
165	0xbe506b89	-0.20353521
166	0xbda6ee72	-0.081509486
167	0x3db1d32f	0.08682858
168	0x3e347a7b	0.17624848
169	0xbe4b7a88	-0.1987096
170	0xbdde574e	-0.10856496
171	0x3d092a02	0.033487327
172	0xbe34521d	-0.17609449
173	0x3e2e3ea2	0.1701608
174	0x3e368489	0.17823996
175	0x3e29fd9a	0.16600648
176	0xbddfab9b	-0.10921403
177	0x3d97617a	0.07391639
178	0x3c0fdf48	0.008781262
179	0x3e36107d	0.17779727
180	0xbdf9d6a0	-0.121991396
181	0xbc965457	-0.018350763
182	0x3e291d38	0.16515052
183	0x3dc3ab02	0.095541015
184	0xbdf30018	-0.11865252
185	0x3dd35462	0.10318829
186	0x3e0ddfe0	0.13854933
187	0xbdc48122	-0.09594943
188	0x3c53ff4b	0.012939285
189	0x3c62c42b	0.013840715
190	0xbe1c966a	-0.15291753
191	0xbd8d7cfd	-0.06908605
192	0xbc557e88	-0.013030656
193	0xbdda2177	-0.10650914
194	0xbe09923f	-0.13434695
195	0xbe48cb66	-0.1960884
196	0x3db2a667	0.08723145
197	0x3c5194db	0.012791838
198	0x3e1315e2	0.14363816
199	0x3e07fc24	0.13279778
200	0x3e528247	0.2055751
201	0xbf1144f4	-0.5674584
202	0x3eaa362e	0.3324446
203	0xbd5f1f95	-0.05447348
204	0xbe2aa00a	-0.16662613
205	0x3d174a09	0.03693584
206	0x3df98a71	0.12184609
207	0x3d79c294	0.06097658
208	0x3e39ca8d	0.18143673
209	0xbbe5cbaf	-0.0070128064
210	0x3df18a4b	0.117939554
211	0xbe0e4ad2	-0.13895729
212	0xbf13bc4b	-0.5770919
213	0x3dc3f1ae	0.09567581
214	0x3db08bcc	0.08620414
215	0x3daae2a4	0.083440095
216	0x3ec34571	0.38138917
217	0xbd553074	-0.05204816
218	0x3b8fd26d	0.0043890984
219	0x3e4e7238	0.20160758
220	0x3e02808a	0.12744346
221	0xbea83d0b	-0.32859072
222	0x3e406eb3	0.18792228
223	0xbe2f28c8	-0.171054
224	0xbe17e87d	-0.14834781
225	0x3e74da4c	0.23911399
226	0xbe8b244e	-0.27176136
227	0x3e767d4a	0.24071231
228	0x3e62c024	0.22143608
229	0x3deed4d7	0.1166169
230	0x3d6e87ef	0.058235105
231	0x3e128ee8	0.14312327
232	0x3f1103df	0.5664653
233	0x3dcb02bf	0.09912633
234	0xbde9ab83	-0.114096664
235	0xbe90a394	-0.282498
236	0xbe06ded4	-0.1317094
237	0x3e94de60	0.2907591
238	0x3e4ede54	0.20201999
239	0x3d8f7172	0.0700406
240	0x3d6e7c09	0.058223758
241	0x3d9c16c2	0.07621528
242	0xbe426cd7	-0.18986832
243	0xbde5454a	-0.111948565
244	0xbcc23466	-0.023706626
245	0xbe152a41	-0.145669
246	0x3c8304f7	0.015993578
247	0x3ccb2fea	0.02480312
248	0xbd8000fa	-0.06250186
249	0xbd64a545	-0.055821676
250	0x3c61c81f	0.013780623
251	0x3e25206b	0.16125648
252	0xbae4721f	-0.001742903
253	0x3c9eb9c5	0.019375691
254	0xbe4a9b83	-0.19785886
255	0x3e51ccab	0.20488231

encoder.6.bias f4 [16]
0	0xbcc17284	-0.023614176
1	0x3da590dc	0.0808427
2	0xbe0553cc	-0.13020247
3	0x3d9c69cf	0.07637369
4	0x3a931d76	0.001122399
5	0x3e4a35cd	0.19747086
6	0x3db08bc1	0.08620406
7	0x3a836ce3	0.0010026958
8	0xbdd3f08a	-0.103486136
9	0xbe200911	-0.15628459
10	0x3dfca16a	0.12335475
11	0x3e1e4011	0.15454127
12	0xbe2c31f8	-0.16815937
13	0xbd95bc97	-0.07311361
14	0xbe310034	-0.17285234
15	0xbde85350	-0.113440156

encoder.8.weight f4 [10, 16]
0	0xbe5d750e	-0.21626684
1	0xbd4d7afc	-0.050166115
2	0xbe4605a7	-0.19338094
3	0xbd9bfeef	-0.07616984
4	0xbdc80250	-0.09766066
5	0xbe4def65	-0.20110853
6	0x3d9acb77	0.07558339
7	0xbedadd16	-0.427468
8	0x3dae32b8	0.085057676
9	0x3e74bdb3	0.2390049
10	0x3e76759a	0.24068299
11	0x3dda0052	0.10644592
12	0x3e7926e0	0.24331236
13	0xbeeebd15	-0.46628633
14	0x3de71c40	0.11284685
15	0x3dd90fe8	0.10598737
16	0x3d29b7d2	0.04143507
17	0x3e353d73	0.17699222
18	0x3d99aac7	0.07503276
19	0x3d846de3	0.06466272
20	0xbe94cda5	-0.29063144
21	0x3d982dfa	0.07430644
22	0xbe0fdfec	-0.14050263
23	0xbddbe7f9	-0.10737605
24	0x3e5c572a	0.21517625
25	0x3d040f66	0.032241248
26	0x3eb2c0c0	0.34912682
27	0xbe458729	-0.19289841
28	0xbe027b6a	-0.12742391
29	0x3f24b0a2	0.6433202
30	0x3d8b1ec8	0.067929804
31	0xbcfa22d0	-0.030534178
32	0xbe82e68f	-0.25566527
33	0x3e7ad196	0.24494013
34	0xbdf72a05	-0.120685615
35	0x3b8094fd	0.003924011
36	0xbccad715	-0.024760762
37	0xbe4a7b02	-0.19773486
38	0xbe185233	-0.14875107
39	0xbd5e0d6c	-0.05421202
40	0xbe505506	-0.20344934
41	0x3e1c9a3f	0.15293215
42	0xbe0e06ae	-0.13869736
43	0xbdf8220d	-0.1211587
44	0xbdff9d14	-0.12481132
45	0x3e5ae7db	0.21377508
46	0x3b41a400	0.0029547215
47	0xbd1e8118	-0.038697332
48	0x3f035275	0.51297694
49	0x3e8f20ee	0.2795481
50	0x3e610719	0.21975364
51	0xbc30b8d1	-0.010786251
52	0xbc8baa5e	-0.01704901
53	0xbe4bae00	-0.19890594
54	0xbe4b3d77	-0.19847666
55	0x3e5586c9	0.20852198
56	0xbe491c14	-0.19639617
57	0x3e7970d4	0.24359447
58	0x3e10a3c8	0.14124978
59	0xbd54217a	-0.05178974
60	0x3d3e1070	0.046402395
61	0x3ed4cab7	0.4156091
62	0x3d0da060	0.034576774
63	0x3de484e8	0.11158162
64	0xbe8f6a10	-0.28010607
65	0x3e471a53	0.19443636
66	0xbce49133	-0.027901268
67	0xbd9a852b	-0.07544931
68	0x3e6f2b9c	0.2335648
69	0xbdde5860	-0.108567
70	0xbe4a5584	-0.19759184
71	0xbc57aeb2	-0.013164209
72	0xbdc7bedc	-0.097532004
73	0xbe58286e	-0.21109173
74	0x3dfb72a1	0.12277723
75	0x3eb7d646	0.35905665
76	0xbe39baae	-0.18137619
77	0xbec9065a	-0.39262658
78	0xbdf4b7ec	-0.11949143
79	0x3cc20ab0	0.023686737
80	0x3c263dde	0.010146586
81	0x3e63ec1f	0.22258042
82	0x3e588300	0.21143723
83	0xbe27052a	-0.16310564
84	0x3dc3f7a2	0.095687166
85	0xbd3c496e	-0.045968466
86	0x3e1fa127	0.15588818
87	0x3d84bd18	0.06481379
88	0x3e344e3a	0.17607966
89	0xbd3a82ad	-0.04553478
90	0xbd7fe90c	-0.06247811
91	0x3e7ef445	0.24897869
92	0xbe28ad0a	-0.16472259
93	0xbf13ae58	-0.576879
94	0xbe3c5cfe	-0.18394849
95	0x3e6444de	0.22291896
96	0xbdb15f53	-0.0866076
97	0xbe16650a	-0.14686981
98	0xbd96d719	-0.07365245
99	0x3e4d47ce	0.20046923
100	0xbe670911	-0.22562052
101	0x3e362411	0.17787196
102	0xbe785481	-0.24250986
103	0x3dfadbf1	0.12248982
104	0xbcc89080	-0.024482965
105	0x3d0c82a7	0.034304287
106	0xbec7ae22	-0.3900004
107	0xbe83d070	-0.25744963
108	0xbe58b026	-0.21160945
109	0xbe0b0d04	-0.13579184
110	0x3e79ec2c	0.24406499
111	0x3d9cf68c	0.076642126
112	0x3db3f7bd	0.08787487
113	0xbe94df51	-0.29076627
114	0xbeafcd09	-0.34336117
115	0xbd6033a4	-0.05473675
116	0xbc8b9057	-0.0170366
117	0xbc862973	-0.016377186
118	0xbe508776	-0.20364174
119	0x3e08d043	0.13360696
120	0xbe264482	-0.16237071
121	0xbe0b1433	-0.13581924
122	0xbd6a8df1	-0.057264272
123	0xbe0ceffc	-0.13763422
124	0xbe0c94f4	-0.13728696
125	0x3e978cbf	0.29599568
126	0xbde6b08c	-0.112641424
127	0xbe03b7ba	-0.12863055
128	0xbdb9ecf0	-0.09078395
129	0x3ddfd3f8	0.10929102
130	0xbdca3a26	-0.09874372
131	0xbe25a095	-0.16174538
132	0xbebb51b0	-0.3658576
133	0x3e0d183d	0.13778777
134	0x3dd9e56a	0.106394604
135	0xbe3a630c	-0.18201846
136	0x3d14a4f8	0.03629014
137	0x3d35a911	0.044350687
138	0x3d53d727	0.051718857
139	0xbdb95c12	-0.09050764
140	0x3d8d0c30	0.0688709
141	0xbde3ba0c	-0.1111947
142	0xbd46f008	-0.048568755
143	0x3e40ffdc	0.18847603
144	0x3d1bb4ae	0.038014106
145	0xbe369f7d	-0.17834277
146	0xbeb5bc6c	-0.35495317
147	0x3e383c9c	0.1799187
148	0x3dba77c8	0.09104878
149	0xbe822bf7	-0.25424168
150	0x3d844678	0.06458753
151	0xbe73c895	-0.23806985
152	0xbd0fae70	-0.035078466
153	0xbde4aaf4	-0.11165419
154	0x3b56c640	0.0032771975
155	0x3eb153fc	0.34634387
156	0xbe176b80	-0.14787102
157	0xbf4e3296	-0.8054594
158	0x3ddbbc2c	0.1072925
159	0xbe72aafc	-0.23698038

encoder.8.bias f4 [10]
0	0xbd47cbac	-0.04877822
1	0x3e8c688a	0.27423507
2	0xbe5606a5	-0.20900972
3	0x3de214eb	0.11039146
4	0x3ceb4269	0.02871819
5	0x3e28d85a	0.16488782
6	0x3e2d8e46	0.16948804
7	0x3b84262e	0.0040328717
8	0xbe00688f	-0.12539886
9	0x3d7c59e1	0.061609153

decoder.0.weight f4 [16, 10]
0	0xbe28c5ba	-0.16481677
1	0x3db14f5f	0.08657717
2	0xbd501658	-0.05080256
3	0xbe588a99	-0.21146621
4	0xbdf373ca	-0.118873194
5	0xbe987ae0	-0.29781246
6	0xbde70e4e	-0.11282025
7	0xbdc8b4b0	-0.098000884
8	0x3e9ff1be	0.31239122
9	0xbe1ad245	-0.15119274
10	0xbd84892f	-0.06471478
11	0xbeae0fdc	-0.33996475
12	0xbde945af	-0.11390244
13	0x3cf579da	0.02996533
14	0x3ec42cf8	0.38315558
15	0xbd4b6085	-0.049652595
16	0xbb6df8ea	-0.0036311694
17	0xbe4f5f60	-0.20251226
18	0xbe3f3f72	-0.18676546
19	0x3e81e28c	0.25368154
20	0xbeef629d	-0.46754923
21	0x3ecd6590	0.4011655
22	0xbd6bda0c	-0.057580993
23	0x3ec5c1cd	0.3862442
24	0xbe0386ce	-0.12844393
25	0x3dfd52fd	0.123693444
26	0xbe523f74	-0.20532018
27	0xbe980acb	-0.29695734
28	0x3d467941	0.04845548
29	0xbf042a0d	-0.51626664
30	0xbeab9832	-0.33514553
31	0xbe755aa0	-0.23960352
32	0x3dc7deb9	0.09759278
33	0x3e0c5baf	0.1370685
34	0x3cb639c3	0.02224434
35	0x3e658d28	0.22417128
36	0x3e012d87	0.12615024
37	0xbd3bd195	-0.04585417
38	0x3d61a03c	0.055084452
39	0xbefebd8a	-0.49753982
40	0x3d9e8673	0.07740488
41	0x3e13dc9a	0.14439622
42	0x3eaea972	0.34113652
43	0x3e06a588	0.13149083
44	0x3dc76643	0.09736302
45	0x3d83ad74	0.06429568
46	0xbe36ffff	-0.17871092
47	0xbe5c0b00	-0.21488571
48	0x3e905952	0.28193146
49	0xbf0f80f8	-0.56056166
50	0x3f0074a8	0.50178003
51	0xbe5c2090	-0.21496797
52	0x3e6bad0c	0.23015231
53	0xbeafed75	-0.34360853
54	0x3e8ea0d6	0.27857083
55	0x3e66329d	0.22480245
56	0xbe857326	-0.26064414
57	0xbe99541b	-0.2994698
58	0x3e0fb444	0.1403361
59	0x3e50ca1c	0.20389599
60	0x3d4c27ee	0.049842767
61	0x3e088f89	0.13336004
62	0x3e515490	0.20442414
63	0xbd663b06	-0.056208633
64	0x3e537804	0.20651251
65	0x3e5e8a06	0.2173234
66	0x3cf61e28	0.030043676
67	0xbdcd8a53	-0.10036149
68	0x3e8e5524	0.27799332
69	0x3e1b1476	0.15144524
70	0xbacf54e7	-0.001581815
71	0x3e303447	0.17207442
72	0xbe8e608e	-0.2780804
73	0xbc1fff1f	-0.009765415
74	0x3e3f34b0	0.18672442
75	0x3bca4b29	0.0061735106
76	0xbeb245bd	-0.3481883
77	0xbe4eb16f	-0.20184873
78	0xbe70efdb	-0.23528998
79	0x3e9c44b3	0.30521163
80	0x3e1d0aa9	0.15336098
81	0xbe8aab61	-0.27083877
82	0xbe721fd3	-0.23644952
83	0xbe47054b	-0.19435613
84	0xbe0c7ce7	-0.13719521
85	0xbe17147e	-0.14753911
86	0xbd9d86bd	-0.07691715
87	0xbe5e6234	-0.21717149
88	0x3e356677	0.17714868
89	0xbda0e7c9	-0.078567095
90	0x3e5cb745	0.21554287
91	0xbe02fb7a	-0.12791243
92	0xbe6a888e	-0.22903654
93	0xbe6b9181	-0.23004724
94	0xbe8a0c39	-0.2696245
95	0x3e818d12	0.2530294
96	0x3e78e149	0.2430469
97	0xbe8bfaa6	-0.27339667
98	0x3e18af4b	0.14910619
99	0xbe8f6c7d	-0.28012457
100	0xbe7a4d1a	-0.24443474
101	0x3ed423e9	0.41433647
102	0x3ce5a08e	0.02803066
103	0x3eab4f30	0.33458853
104	0xbe9d5e26	-0.30735892
105	0x3e69d1bf	0.22833918
106	0x3e3d5ffc	0.18493646
107	0xbe8e9234	-0.2784592
108	0x3e21d497	0.15803753
109	0xbf0d5cce	-0.55219734
110	0x3d12a8b6	0.035805427
111	0xbd533a92	-0.05156953
112	0xbea85e22	-0.32884318
113	0x3e24042d	0.16017218
114	0x3edb0665	0.42778316
115	0x3e297c0b	0.16551225
116	0xbeaf804c	-0.3427757
117	0x3d4d0047	0.050049093
118	0xbe2f5bec	-0.17124909
119	0xbdafb0ec	-0.08578667
120	0x3e53a88f	0.20669769
121	0xbe22056b	-0.1582238
122	0xbefee557	-0.49784347
123	0x3e86616a	0.26246196
124	0x3e0c7000	0.137146
125	0xbe8c31df	-0.273818
126	0x3dd8f77a	0.105940774
127	0xbdadea9f	-0.08492016
128	0xbec9456a	-0.3931077
129	0x3e577655	0.21041234
130	0x3f44a5f2	0.7681571
131	0xbf0305c2	-0.5118066
132	0x3e96176a	0.2931474
133	0xbebe7597	-0.3719909
134	0x3e447a7d	0.1918735
135	0xbe0d0c70	-0.13774276
136	0xbe356486	-0.17714128
137	0xbe49bcd8	-0.19700944
138	0x3e739e1a	0.2379078
139	0x3eec7d2f	0.46189258
140	0x3e450351	0.19239546
141	0xbe6ccc08	-0.23124707
142	0xbd4d6fa5	-0.0501553
143	0x3e051653	0.12996797
144	0x3e966dab	0.29380545
145	0x3e60682d	0.2191474
146	0xbdd005be	-0.10157345
147	0xbe8e00dd	-0.27735034
148	0x3cb7416c	0.022370063
149	0xbe3736b2	-0.17891958
150	0x3e3f1d33	0.18663482
151	0x3ed4b691	0.41545537
152	0xbd835fd8	-0.06414765
153	0x3e981efc	0.2971114
154	0x3dc82cbc	0.097741574
155	0xbe75c191	-0.23999621
156	0xbec93ebd	-0.39305678
157	0xbdcd61e4	-0.10028437
158	0x3e1215c3	0.14266114
159	0xbe77ff39	-0.24218453

decoder.0.bias f4 [16]
0	0x3de0f6d9	0.109845825
1	0x3e77180a	0.24130264
2	0xbe05d79f	-0.13070534
3	0xbdd76efb	-0.10519215
4	0xbda27d09	-0.07934005
5	0x3d77dc52	0.06051285
6	0x3eceeefb	0.40416703
7	0x3ea50194	0.32227767
8	0x3e37690d	0.17911167
9	0xbe24f136	-0.1610764
10	0xbe167541	-0.14693166
11	0x3e2183e9	0.15772976
12	0x3e9fc209	0.31202725
13	0xbdcc9119	-0.09988613
14	0x3dbf0de8	0.09328824
15	0xbd1a122a	-0.03761498

decoder.2.weight f4 [20, 16]
0	0x3d93ab34	0.07210389
1	0x3eb4dd97	0.3532531
2	0x3cbf8d09	0.02338268
3	0x3e845606	0.2584688
4	0xbe194ed0	-0.14971471
5	0x3e989f65	0.29809108
6	0x3e2a0906	0.16605005
7	0x3eb5a16f	0.35474727
8	0x3e889c7f	0.26681897
9	0x3e052636	0.13002858
10	0xbe8f8e7f	-0.28038403
11	0x3e92d7a8	0.28680158
12	0x3dbf9585	0.093546905
13	0xbddab4bb	-0.10679003
14	0xbe0ecd23	-0.13945441
15	0xbd9f56e5	-0.07780246
16	0x3e6fd2c4	0.23420244
17	0xbd6c44e1	-0.057682876
18	0x3bab4b67	0.0052274945
19	0x3e975113	0.29554042
20	0x3e8d1801	0.27557376
21	0x3eced1a5	0.4039432
22	0xbe569886	-0.2095662
23	0x3d085efa	0.0332937
24	0xbd9ad0fc	-0.07559392
25	0x3e439620	0.19100237
26	0x3e20a41d	0.15687604
27	0xbdb1daa8	-0.086842835
28	0xbe62f0de	-0.22162196
29	0x3f282ca2	0.65693104
30	0x3e8d4d0a	0.2759784
31	0x3d37d89e	0.044884317
32	0x3dd10bd8	0.10207337
33	0x3e49f4b2	0.1972225
34	0xbbc3d174	-0.0059758965
35	0xbf033ab8	-0.5126147
36	0xbe3c2295	-0.18372567
37	0x3da38eec	0.079862446
38	0xbe86c374	-0.26320994
39	0xbddfc154	-0.10925546
40	0xbe5de382	-0.21668819
41	0xbbe28d00	-0.006913781
42	0xbeb821e5	-0.3596336
43	0x3e6a1a00	0.2286148
44	0x3d42a581	0.047521118
45	0x3eb420c9	0.35181263
46	0x3e7d90b1	0.24762227
47	0x3d6f777c	0.05846356
48	0x3e2b8e38	0.16753471
49	0x3e5f4e2f	0.21807168
50	0x3d8fdf71	0.0702504
51	0xbef3ff50	-0.47655725
52	0x3eadf181	0.33973315
53	0xbe030b94	-0.12797385
54	0x3e27b794	0.16378623
55	0x3e4d8230	0.20069194
56	0xbdb8bf97	-0.09020918
57	0x3d3855c8	0.045003682
58	0xbc5bedae	-0.0134233665
59	0x3e8f248f	0.2795758
60	0xbd1ff530	-0.03905219
61	0xbeedfd53	-0.46482334
62	0xbd6edbcc	-0.058315083
63	0x3e52e1db	0.2059397
64	0x3e78f9b0	0.24313998
65	0xbe75961a	-0.2398304
66	0xbdcd8680	-0.100354195
67	0x3d77c2f0	0.06048864
68	0x3e143e12	0.14476803
69	0xbcfc50d0	-0.030800253
70	0x3b476480	0.0030424893
71	0xbdf54d2c	-0.1197761
72	0x3df728c4	0.12068322
73	0x3c8915c0	0.016734004
74	0xbd46bc38	-0.048519343
75	0x3d64e0e8	0.05587855
76	0xbd2a35d0	-0.041555226
77	0xbe0818ce	-0.13290712
78	0xbe695588	-0.22786534
79	0xbdbfffa8	-0.093749344
80	0x3d5e8398	0.054324716
81	0x3d8f42bb	0.0699515
82	0x3e377f0c	0.17919558
83	0x3b5c6900	0.003363192
84	0x3d3dbd58	0.04632315
85	0xbb0da91b	-0.0021615687
86	0x3e584e97	0.2112373
87	0xbe3fdc79	-0.18736447
88	0xbe635f8d	-0.22204418
89	0xbd87f93c	-0.066393346
90	0xbe3523c8	-0.1768943
91	0xbce73752	-0.028224621
92	0x3d52fdbe	0.05151152
93	0x3e45dc4b	0.19322316
94	0xbe19ff32	-0.15038756
95	0xbe48b829	-0.19601502
96	0xbe656796	-0.22402796
97	0x3d96f92c	0.073717445
98	0x3de81c89	0.11333568
99	0xbe36e86c	-0.178621
100	0x3e66a122	0.22522405
101	0x3e01a6ff	0.1266136
102	0xbe8f052c	-0.27933633
103	0x3e28fc6f	0.16502546
104	0x3c6401c8	0.01391644
105	0x3ab50400	0.0013810396
106	0xbe79f893	-0.2441123
107	0xbe8ff1ea	-0.28114253
108	0xbc8e8203	-0.017395979
109	0xbd5fb962	-0.054620154
110	0x3c846db2	0.016165588
111	0xbe71d2e1	-0.236156
112	0xbd2dc3e0	-0.04242313
113	0x3e597c74	0.21238881
114	0xbdc0ce95	-0.094144024
115	0xbe4e1190	-0.20123887
116	0xbe89bfd9	-0.2690418
117	0x3e6382d1	0.22217871
118	0x3e2707a4	0.16311508
119	0x3e62d82a	0.22152773
120	0x3dd27e56	0.10278003
121	0xbe087f20	-0.13329744
122	0xbec29a45	-0.38008323
123	0xbcbe5003	-0.023231512
124	0x3e5bd241	0.21466924
125	0x3e0b1b0e	0.1358454
126	0x3d32e4e3	0.043675315
127	0xbe05cd29	-0.13066544
128	0xbe28235a	-0.16419736
129	0x3deaf3a8	0.11472255
130	0x3e8603a2	0.26174647
131	0x3e9473be	0.28994554
132	0x3eab1a6e	0.33418602
133	0xbf16766e	-0.5877446
134	0xbdcbb108	-0.099458754
135	0xbc867823	-0.016414708
136	0x3e4da539	0.20082559
137	0x3d271678	0.040792912
138	0x3e79011b	0.24316828
139	0x3e3bb9bc	0.18332571
140	0x3decb346	0.11557631
141	0xbf3d206b	-0.7387759
142	0xbdd678c8	-0.10472256
143	0xbda8f359	-0.0824954
144	0xbd2fbfd8	-0.042907566
145	0x3e2d1d6e	0.16905758
146	0xbd43197a	-0.04763172
147	0xbe981b4c	-0.29708326
148	0xbe0852cd	-0.13312836
149	0xbe2d0174	-0.16895086
150	0x3e4df09d	0.20111318
151	0x3e731f78	0.23742473
152	0xbe446265	-0.1917816
153	0x3e1521d0	0.1456368
154	0x3d0d843d	0.03454994
155	0x3e93064c	0.28715742
156	0x3e415344	0.1887942
157	0xbda89c57	-0.082329445
158	0xbe387d64	-0.18016583
159	0x3e87c363	0.26516256
160	0xbd931b74	-0.07182971
161	0x3ebe40df	0.37158868
162	0x3e93adcc	0.28843534
163	0x3e452326	0.1925169
164	0xbd304d68	-0.04304257
165	0xbe305593	-0.17220144
166	0xbe426406	-0.18983468
167	0x3e36f4f2	0.17866877
168	0xbdc848ec	-0.09779534
169	0xbe5366cc	-0.20644683
170	0xbcf7d27e	-0.030251738
171	0x3e407785	0.18795593
172	0xbc9f17bb	-0.019420495
173	0x3d323b35	0.043513495
174	0x3e8075ce	0.25089878
175	0xbcb1a962	-0.021687213
176	0xbd993768	-0.07481271
177	0x3d9b2811	0.075760014
178	0xbdcfe2d5	-0.10150687
179	0xbe7edc1d	-0.24888654
180	0x3e519715	0.2046779
181	0x3e0f8700	0.14016342
182	0x3e10915a	0.14117947
183	0xbe1dff68	-0.15429461
184	0xbe4e610e	-0.20154211
185	0xbc607560	-0.013699859
186	0xbf3c7f63	-0.73631877
187	0x3d965a45	0.07341436
188	0xbe05c969	-0.13065113
189	0x3e65b366	0.22431716
190	0x3e2d2fd3	0.16912775
191	0x3e9723fb	0.29519638
192	0xbd4d5ee8	-0.050139338
193	0xbe346b7c	-0.17619127
194	0xbe0672ef	-0.13129781
195	0x3e4cf5c9	0.20015635
196	0x3e50acdf	0.20378445
197	0x3dea1dec	0.114314884
198	0xbd75794a	-0.059930123
199	0xbe2442c1	-0.1604109
200	0x3dba108c	0.09085187
201	0xbe559ff6	-0.20861802
202	0x3dc5b48c	0.09653577
203	0xbd88a693	-0.066723965
204	0x3cd0e720	0.025500834
205	0xbe078a94	-0.13236457
206	0x3e257e7d	0.16161533
207	0xbe7b0cb8	-0.2451657
208	0x3dd5a0c0	0.10431051
209	0x3d0cbdc0	0.034360647
210	0xbd14d6df	-0.03633773
211	0xbeef3508	-0.46720147
212	0x3ddf0f91	0.10891641
213	0x3d1ab4c6	0.037770055
214	0x3ed772ad	0.42079678
215	0x3e970269	0.29494026
216	0xbd69ca2b	-0.057077568
217	0xbdaca730	-0.08430326
218	0xbe8f69c8	-0.28010392
219	0x3e4cd715	0.20003922
220	0xbd8fb89f	-0.070176356
221	0x3eb1843e	0.34671205
222	0x3e4f2fce	0.2023308
223	0x3e2daf90	0.16961503
224	0xbe1e4188	-0.15454686
225	0x3e174201	0.14771272
226	0xbeca67db	-0.3953236
227	0x3e87493a	0.26423055
228	0xbfa585fa	-1.2931511
229	0x3d9ec1ee	0.07751833
230	0x3e1ec17b	0.15503494
231	0xbd22396e	-0.03960555
232	0xbd137951	-0.03600437
233	0xbe7a923c	-0.24469846
234	0x3ceaa780	0.028644323
235	0xbd1855b0	-0.037191093
236	0xbe15af50	-0.14617658
237	0xbdfeb813	-0.12437453
238	0x3e3f59ec	0.18686646
239	0xbea6fea8	-0.32616162
240	0xbe35ce12	-0.17754391
241	0x3e7b86da	0.2456316
242	0xbf04d0d3	-0.5188114
243	0xbeba158a	-0.36344558
244	0xbf7fc3c6	-0.999081
245	0x3e8bcf6f	0.27306697
246	0xbeab077f	-0.33404157
247	0x3e386892	0.1800864
248	0x3e28ce36	0.16484913
249	0x3e2c3ecc	0.1682083
250	0x3d97ba7b	0.07408615
251	0xbe8fcbc5	-0.2808515
252	0xbe45d134	-0.19318086
253	0x3e93e42e	0.28885025
254	0x3e054868	0.13015902
255	0xbe638da8	-0.22222006

decoder.2.bias f4 [20]
0	0x3e0c2648	0.13686478
1	0x3dca490f	0.09877216
2	0xbee603d1	-0.44924787
3	0x3df0a921	0.11751009
4	0x3e0044c8	0.12526238
5	0x3e535930	0.20639491
6	0x3d8b6a1a	0.06807347
7	0x3dc18f7b	0.09451195
8	0x3eb437eb	0.35198912
9	0x3e5d08de	0.21585414
10	0xbdededd5	-0.116176285
11	0xbe293f0c	-0.16527957
12	0xbe17d21f	-0.14826249
13	0x3e0c20fb	0.13684456
14	0xbe074395	-0.13209374
15	0x3e442544	0.1915484
16	0x3eeabdca	0.45847923
17	0xbe4e0782	-0.20120052
18	0x3cf20249	0.029542105
19	0x3e190b2b	0.14945666
