model_checkpoints/mlp_best_model.pth (torch, 574370 bytes, 12 tensors)

module.0.weight f4 [256, 384]
0	0x3cdd5ca7	0.02702172
1	0x3d4d6a75	0.050150353
2	0x3ce5cdbd	0.028052205
3	0x3d5202ef	0.05127233
4	0x3c87582d	0.016521538
5	0xbd319edc	-0.04336439
6	0xbc703008	-0.014659889
7	0x3c02928a	0.007969508
8	0xbc5ec476	-0.013596645
9	0xbd2bae02	-0.041913994
10	0x3cd49691	0.025950702
11	0x3c155891	0.009115354
12	0x3c9fb146	0.01949371
13	0x3d6d8543	0.057988416
14	0x3d7b095b	0.06128822
15	0xbd14c43b	-0.036319952
16	0x3d581bd6	0.05276092
17	0x3d26046f	0.040531572
18	0xbd0ced87	-0.03440621
19	0x3d801627	0.06254225
20	0x3cd6e1f6	0.026230793
21	0xbcf49bd9	-0.02985947
22	0xbcaf834d	-0.021424914
23	0x3ce96aef	0.028493373
24	0x3c374570	0.011185989
25	0xbcac9684	-0.021067865
26	0x3cb5ae73	0.02217791
27	0xbda4cd67	-0.0804699
28	0x3cd80d48	0.02637352
29	0xbd3a04a0	-0.045414567
30	0xba2566cb	-0.0006309568
31	0x3b872576	0.0041243387
32	0xbda003cb	-0.078132235
33	0xbd834355	-0.06409327
34	0xbd230b95	-0.039805967
35	0xbd46347e	-0.048389904
36	0x3d8a9eb2	0.0676855
37	0xbbce1177	-0.006288703
38	0xbd2741bf	-0.040834185
39	0x3cf45ac5	0.029828439
40	0x3c83ac6e	0.016073432
41	0xbce03295	-0.02736787
42	0xbc7671b5	-0.015041758
43	0xba4f2f96	-0.0007903514
44	0xbd0b7064	-0.03404273
45	0xbcf36f07	-0.029716028
46	0x3cd9a969	0.026570039
47	0x3ca39c7c	0.019972079
48	0xbc9c327e	-0.019067045
49	0xbcf1df51	-0.02952543
50	0x3b362c66	0.002779746
51	0x3d1ea9b1	0.03873605
52	0xbd7e1f26	-0.062041424
53	0xbc789ccf	-0.015174105
54	0xb813e9bf	-3.5265224e-05
55	0xbd0d2fa0	-0.034469247
56	0x3cc68fe9	0.024238544
57	0x3c9493fa	0.018136967
58	0x3cbab798	0.022792622
59	0xbc13ad0c	-0.009013426
60	0xbd69c731	-0.05707473
61	0xbcb6b678	-0.022303805
62	0x3c37e727	0.011224545
63	0x3d32ccdc	0.0436524
64	0xbd05882f	-0.032600578
65	0x3d23e598	0.04001388
66	0xbcd35160	-0.025795639
67	0x3c83d824	0.016094275
68	0x3ac1adaf	0.0014776493
69	0xbd415a96	-0.04720553
70	0xbc0fd3fe	-0.00877857
71	0xbd6a1e24	-0.05715765
72	0x3cbca58b	0.023028156
73	0xbb9544ae	-0.0045553064
74	0xbd813f2e	-0.06310879
75	0x3d7142dc	0.058901653
76	0x3d952ff8	0.0728454
77	0xbd1b6e2c	-0.037946865
78	0xbc8510b0	-0.016243309
79	0x3a55438a	0.0008135369
80	0x3d361fd9	0.044463966
81	0xbd330b12	-0.04371173
82	0x3b434866	0.0029797792
83	0xbc148804	-0.009065632
84	0x3d333542	0.043751962
85	0xbcb40c78	-0.021978602
86	0xbc12b591	-0.008954422
87	0x3ca17ecb	0.01971378
88	0xbc61e595	-0.013787647
89	0x3c2693c0	0.010167062
90	0x3cd35e45	0.025801787
91	0xbd4cab66	-0.049968146
92	0x3ba2f6e0	0.0049732774
93	0x3d04f9a2	0.03246463
94	0x3ca759a4	0.020428486
95	0x3c27a4b7	0.010232142
96	0xbd52dda2	-0.051480897
97	0xbd099b6c	-0.033595487
98	0xbd77a539	-0.060460303
99	0x3b504757	0.0031780803
100	0x3c55a884	0.013040666
101	0xbc5236be	-0.012830434
102	0xbcffc3d7	-0.031221313
103	0xbd958861	-0.07301403
104	0xbcf8be35	-0.030364135
105	0x3d414d7f	0.047193047
106	0x3d04442c	0.032291576
107	0xbcb41cc0	-0.021986365
108	0x3ca98480	0.020693064
109	0x3d12a9af	0.035806354
110	0xbda36c03	-0.07979586
111	0x3c1f1487	0.009709484
112	0xbd37c811	-0.044868533
113	0x3d122497	0.035679426
114	0xbd8fdead	-0.07024894
115	0x3da6c79f	0.081435435
116	0x3d01d628	0.031698376
117	0xbc92b29a	-0.01790743
118	0xbcbd7d2e	-0.02313098
119	0x3d89ae6b	0.06722721
120	0x3c8e02ec	0.017335378
121	0x3d7cbf19	0.061705682
122	0x3d0b34ff	0.033986088
123	0xbca07fd2	-0.0195922
124	0xba72c729	-0.00092612446
125	0xbcc5ba9e	-0.024136838
126	0x3cb48d39	0.022039996
127	0xbd183016	-0.037155233
128	0xbb28263e	-0.002565756
129	0xbc96dd3d	-0.018416042
130	0x3d33d2a4	0.043902054
131	0x3cebece7	0.028799487
132	0x3d94b177	0.07260411
133	0xbdb6ecaf	-0.089318626
134	0xbd3f9ec9	-0.04678229
135	0x3bdac056	0.0066757603
136	0xbd92e98b	-0.07173451
137	0x3d32ebf5	0.043682057
138	0xbd08ef74	-0.033431485
139	0x3d17b75d	0.037040103
140	0x3ce1cfee	0.027564969
141	0xbd699986	-0.057031177
142	0xbd34bdf4	-0.044126466
143	0x3d3539c9	0.04424456
144	0x3bb2ed09	0.0054603857
145	0x3d30cc8e	0.04316383
146	0x3dc3d807	0.09562688
147	0xbd8e6863	-0.06953504
148	0xbcdffd0e	-0.027342346
149	0xbd5ae370	-0.053439558
150	0x3c132edc	0.00898334
151	0xbb4294aa	-0.0029690661
152	0x3d2206d5	0.039557297
153	0x3cacb707	0.021083368
154	0x3ccabc8b	0.024748107
155	0xbc35a531	-0.011086748
156	0xbbf25aa3	-0.0073960586
157	0x3d5e9a8d	0.05434661
158	0x3d29d73a	0.04146502
159	0x3d094cca	0.033520497
160	0xbd0bad17	-0.03410062
161	0xbccc1636	-0.024912935
162	0xbd136019	-0.035980318
163	0xbcccf35b	-0.025018385
164	0xbbd4bc5a	-0.00649218
165	0xbcc857dc	-0.024455957
166	0xbda0ac65	-0.07845382
167	0xbd82a40b	-0.06378945
168	0xbce08233	-0.027405834
169	0x3ce6aa0f	0.028157262
170	0x3d85fa02	0.06541826
171	0xbc1cca71	-0.00956975
172	0xbd3b8a32	-0.04578609
173	0x3bffd3e8	0.0078072436
174	0xbd41884e	-0.04724913
175	0x3c1845ca	0.009293983
176	0x3c5eb28e	0.013592375
177	0xbd327ac2	-0.043574102
178	0xbd14b3e1	-0.03630436
179	0xbd1b55aa	-0.037923492
180	0x3d9b1970	0.07573211
181	0x3d62cf75	0.055373628
182	0x3cd030d2	0.025413904
183	0x3cc6803d	0.02423107
184	0x3dabcdbd	0.08388851
185	0xbc9ded7d	-0.019278282
186	0xbc81abad	-0.015828932
187	0xbd5c0d7d	-0.0537238
188	0xbdcccfd2	-0.10000576
189	0xbd25a420	-0.040439725
190	0xbc046ae3	-0.008082124
191	0xbbe3c689	-0.0069511575
192	0x3d0334e8	0.032032877
193	0xbba61b10	-0.005069144
194	0xbd0b632c	-0.034030125
195	0x3bfead02	0.007772089
196	0xbde0589d	-0.10954402
197	0xbcede388	-0.02903916
198	0xb7ddbb44	-2.6432455e-05
199	0x3d28ec04	0.041240707
200	0x3b93e247	0.0045130583
201	0xbdc2cbf6	-0.09511559
202	0xbd2c44fc	-0.042057976
203	0xbda3cc2d	-0.07997928
204	0x3d0b387d	0.03398942
205	0xbb56e51e	-0.0032790373
206	0x3c893872	0.016750548
207	0xbcb3215b	-0.021866491
208	0xbbd17d03	-0.0063930764
209	0xbd47ea6d	-0.04880755
210	0x3d692c51	0.05692703
211	0x3c07bafd	0.008284328
212	0x3d944080	0.07238865
213	0xbc10cb21	-0.008837492
214	0x3d524aab	0.05134074
215	0xbd9b0c3a	-0.075706914
216	0xbd3a3cc5	-0.04546811
217	0x3c879671	0.016551228
218	0xbd219fdc	-0.039459094
219	0xbd1c29ad	-0.038125683
220	0x3d614505	0.054997463
221	0x3d6f1b4c	0.05837564
222	0x3d67fd58	0.05663809
223	0xbc0a101f	-0.008426695
224	0x3cd84c8c	0.026403688
225	0xbd29641f	-0.04135525
226	0x3d0c95d7	0.034322586
227	0xbc85b2b2	-0.01632056
228	0xbc5c9893	-0.013464111
229	0xbda85b64	-0.082205564
230	0xbc91edab	-0.017813524
231	0x3cf75b37	0.030194862
232	0xbb9d8956	-0.0048076315
233	0xbbf8b327	-0.007589716
234	0xbc6f63ba	-0.014611179
235	0x3c2cb41a	0.010540986
236	0xbcfbb780	-0.030727148
237	0x3c6ccc89	0.014453062
238	0xbc057376	-0.008145204
239	0x3bfdb41e	0.007742419
240	0xbc881415	-0.016611138
241	0x3d4da3ea	0.05020515
242	0x3d70b457	0.058765735
243	0xbd74df92	-0.059783526
244	0x3d2ae769	0.041724596
245	0xbcb97cf2	-0.022642586
246	0x3d7825a2	0.060582764
247	0xbc0ba7d8	-0.008523904
248	0xbcdf1acb	-0.027234456
249	0x3c87f16a	0.016594607
250	0x3d2cac3b	0.04215644
251	0x3cd062d9	0.02543776
252	0xbd70b5dc	-0.058767185
253	0x3c770b6b	0.015078406
254	0xbb8fcf45	-0.004388722
255	0x3d186dc9	0.037214074

module.0.bias f4 [256]
0	0xbaf02f13	-0.0018324576
1	0x3c2a6e9e	0.01040235
2	0xbbb95340	-0.005655676
3	0x3adbb1d1	0.0016761367
4	0xbd42ff6c	-0.04760687
5	0xbc8e6b12	-0.01738504
6	0x3d756997	0.05991515
7	0xbd3b2748	-0.04569176
8	0x3d6cf99e	0.05785524
9	0x3d6aabb2	0.057292648
10	0x3c0b01af	0.008484288
11	0xbd096f3b	-0.033553343
12	0x3bce700c	0.006299978
13	0x3c6254b3	0.013814139
14	0x3d5373ba	0.051624037
15	0x3caa7d80	0.020811796
16	0x3d692161	0.0569166
17	0xbc0028a0	-0.007822186
18	0x3d213aad	0.0393626
19	0xbd29285b	-0.04129825
20	0x3cb84306	0.022492897
21	0x3d013415	0.03154381
22	0x3c6e407d	0.014541742
23	0x3d82dc89	0.0638972
24	0x3c2af9e3	0.010435554
25	0x3cecec77	0.028921349
26	0xbc67e6a7	-0.014154113
27	0xbc06a775	-0.008218636
28	0x3d55a07b	0.052155
29	0x3c5a4d23	0.013324055
30	0x3d3e9e35	0.046537597
31	0xbafbfcd9	-0.0019225135
32	0x3d2ee4cf	0.042698678
33	0x3c81bb87	0.01583649
34	0x3d789083	0.060684692
35	0x3d1e8919	0.038704965
36	0xbc9bcb08	-0.019017711
37	0x3c6de001	0.014518739
38	0x3d664dbe	0.056226484
39	0x3cafdb4a	0.02146687
40	0x3cb67872	0.02227423
41	0x3d2e302d	0.042526413
42	0x3d7ebd7b	0.06219242
43	0x3bd9062b	0.0066230497
44	0x3cf50440	0.029909253
45	0xbc9ad9e0	-0.018902719
46	0x3a7775ee	0.0009439875
47	0x3c9d2d59	0.019186663
48	0xbc288602	-0.010285856
49	0xbc197a4d	-0.009367538
50	0x3d5c08e5	0.05371942
51	0x3cdada6e	0.026715484
52	0xbadf8512	-0.0017053208
53	0x3d55972d	0.052146126
54	0x3bad0e7f	0.005281269
55	0x3ce289a9	0.027653532
56	0xbc373c6d	-0.01118384
57	0x3d03ac00	0.032146454
58	0x3d039038	0.03211996
59	0x3b30f148	0.0026999284
60	0x3cc4fd83	0.024046665
61	0xbcad37f1	-0.021144839
62	0xbd0ccac7	-0.03437307
63	0x3cf72496	0.030168813
64	0xbcd695c1	-0.026194455
65	0x3d702edb	0.058638435
66	0x3b571559	0.003281912
67	0x3ce64626	0.028109621
68	0xbca92ba3	-0.02065069
69	0x3ce48d72	0.027899478
70	0xbcce42bd	-0.025178308
71	0x3d519e85	0.051176567
72	0xbc62fc6e	-0.013854129
73	0xbb868298	-0.0041049235
74	0x3d576ec3	0.052595865
75	0xbc026b9b	-0.007960225
76	0x3afddaac	0.0019367537
77	0x3d58fa2a	0.05297295
78	0x3d061836	0.032737933
79	0xbd192f14	-0.037398413
80	0xbc1c59fb	-0.009542937
81	0xbcba8fb5	-0.022773603
82	0x3c836bae	0.016042557
83	0xbd21c002	-0.039489754
84	0x3d4368f4	0.047707513
85	0x3c21e5c7	0.009881443
86	0x3ceb7b47	0.028745307
87	0x3d6a24fe	0.057164185
88	0x3d49b9d5	0.04924949
89	0xbcdb851a	-0.026796866
90	0x3d8eed1a	0.06978817
91	0x3c764c7c	0.015032884
92	0x3c508f90	0.0127295405
93	0x3c2f50be	0.010700403
94	0x3cb32478	0.021867976
95	0x3d4dbd98	0.05022964
96	0x3c8a6bc8	0.016897097
97	0x3ba3c3d5	0.00499771
98	0x3d731c80	0.05935335
99	0x3cec1dec	0.028822862
100	0x3d191501	0.037373547
101	0x3c8c28d1	0.017109307
102	0xbb0046d4	-0.0019573467
103	0x3c471ba1	0.012152583
104	0x3c949014	0.018135108
105	0x3d20dcd7	0.03927311
106	0x3d861264	0.065464765
107	0xbc483020	-0.012218505
108	0x3c5fe485	0.013665323
109	0xbce4419b	-0.027863314
110	0x3cd8bce8	0.026457265
111	0x3c58b2df	0.01322624
112	0xbccac510	-0.02475217
113	0xbcc5b287	-0.02413298
114	0x3d6edf03	0.05831815
115	0x3d59f583	0.053212654
116	0x3d4e2f10	0.05033785
117	0x3d19bb5b	0.03753219
118	0xbc5ea3f5	-0.013588895
119	0x3bfc373f	0.0076970155
120	0x3c71db54	0.014761765
121	0xbca0b314	-0.019616641
122	0x3cc8bf16	0.02450518
123	0x3b73c9e3	0.0037199191
124	0x3bce2079	0.006290492
125	0x3d6fc0d4	0.058533505
126	0x3c62ff86	0.013854867
127	0x3cf5191c	0.0299192
128	0xba657e7e	-0.00087545055
129	0x3d81532d	0.06314693
130	0xbd1c6eef	-0.038191732
131	0xbac7c34c	-0.0015240698
132	0x3d11cddf	0.035596725
133	0x3d813d7d	0.06310556
134	0x3ba7f4c0	0.005125612
135	0xbcd96f2b	-0.026542267
136	0xbc3f4843	-0.011674943
137	0x3bdbfa40	0.0067131817
138	0x3a45081d	0.00075161626
139	0x3cc134c1	0.023584725
140	0x3ba05a5a	0.0048935832
141	0xbb5a9d71	-0.0033358003
142	0x3cc763a5	0.024339506
143	0x3c7190a4	0.014743958
144	0xbc24258f	-0.01001872
145	0xb9ab86e6	-0.0003271617
146	0x3c8a6d0b	0.016897699
147	0x3d2689f5	0.04065891
148	0xbbdd7e82	-0.0067594657
149	0xbcf32070	-0.029678553
150	0x3ccf5a86	0.02531172
151	0x3cd3d656	0.02585904
152	0x3d388d83	0.04505683
153	0x3c52328d	0.012829435
154	0xbccd8d26	-0.025091719
155	0x3d42c380	0.047549725
156	0x3d1345f3	0.03595538
157	0x3c3059c1	0.0107635865
158	0x3cc0d3b6	0.023538452
159	0xbd2f3076	-0.042770825
160	0x3c4783f5	0.012177457
161	0x3d31110b	0.043229144
162	0x3cb1e153	0.021713888
163	0x3c12b9f6	0.008955469
164	0xbcd8a2b7	-0.026444776
165	0x3cfdb64b	0.030970713
166	0x3d8c9144	0.06863645
167	0x3b5de5c7	0.0033858882
168	0x3d5595bb	0.052144747
169	0x3cb93709	0.02260925
170	0xbd059de8	-0.032621294
171	0x3cc1cf98	0.023658559
172	0xbb8e0a14	-0.0043346975
173	0xbb806fae	-0.0039195633
174	0x3cc760ce	0.024338152
175	0x3d8658fe	0.06559943
176	0x3d57aef1	0.05265707
177	0x3c400d79	0.011721962
178	0x3b04f0e4	0.0020285184
179	0xbce6a997	-0.028157039
180	0xbd161c96	-0.036648355
181	0x3d21c5c9	0.039495263
182	0xbcf1affb	-0.02950286
183	0xbd4227ee	-0.04740136
184	0x3ce41e20	0.027846396
185	0xbaad41ab	-0.0013218423
186	0x3d5b90a2	0.05360473
187	0xbd36b1e4	-0.044603243
188	0x3c0e5d34	0.008689214
189	0x3d1a3721	0.03765023
190	0xbcee9d61	-0.029127778
191	0x3cb48dbb	0.022040239
192	0xbd4e4476	-0.05035826
193	0xbb8aaa13	-0.0042317
194	0x3d308785	0.04309799
195	0x3d0afb8c	0.0339313
196	0xbd271e93	-0.040800642
197	0xbc9de3b8	-0.019273624
198	0x3b50ab1d	0.0031840273
199	0x3d004f6e	0.03132575
200	0xbaa17e8d	-0.001232104
201	0x3d0fd897	0.035118666
202	0xbc5f9da5	-0.013648425
203	0x3d7ed313	0.062213015
204	0x3d14a65a	0.036291458
205	0xbc2fa53a	-0.010720545
206	0x3cf72ed8	0.030173704
207	0x3c1e9153	0.009678203
208	0x3cbc5cd8	0.02299349
209	0x3aabce63	0.0013107773
210	0x3d8c7b33	0.06859436
211	0xbce34f16	-0.027747672
212	0xbc4b7877	-0.012418858
213	0x3d1b7b45	0.037959356
214	0x3ca2a21c	0.01985269
215	0x3d25fcd6	0.040524326
216	0xbd13421a	-0.03595171
217	0x3c63eb93	0.013911146
218	0xbc4ec8de	-0.012621133
219	0xbce49792	-0.027904306
220	0x3c32f887	0.010923511
221	0x3cbecec5	0.023291955
222	0x3d831e72	0.06402291
223	0x3cc528d7	0.024067326
224	0xbc0c6017	-0.0085678315
225	0xbc931ae2	-0.017957155
226	0x3ad190f6	0.0015988636
227	0x3d74ecf4	0.05979629
228	0xbc9a9060	-0.018867671
229	0xbc7c4431	-0.0153971175
230	0x3d86a9e9	0.065753765
231	0xba2e7801	-0.0006655455
232	0x3c89c654	0.016818203
233	0x3cb3d410	0.021951705
234	0x3ca62465	0.020281026
235	0xbc9bb688	-0.019007936
236	0x3d8b9497	0.06815451
237	0xbd4acaed	-0.04950993
238	0x3d292ee0	0.04130447
239	0x3d188575	0.03723665
240	0xbc4ed4eb	-0.012624006
241	0xbcbb5d3b	-0.022871604
242	0x3cd76728	0.026294306
243	0xbc9eab64	-0.019368835
244	0x3d3525b3	0.044225406
245	0xbc53cfcc	-0.012927961
246	0xbcc11a2c	-0.02357205
247	0xbc6030c3	-0.013683501
248	0x3b489e6a	0.0030612
249	0x3c79636c	0.015221458
250	0x3d70ec62	0.058819182
251	0xbcceed03	-0.0252595
252	0x3b3bd341	0.0028659853
253	0x3cd09f90	0.02546671
254	0x3d0cd2cb	0.034380715
255	0x3c6c3fb2	0.014419483

module.2.weight f4 [128, 256]
0	0xbdd37eff	-0.10326957
1	0xbc37c2ac	-0.011215847
2	0x3bee4b69	0.007272173
3	0x3d97cf1f	0.07412552
4	0xbd10b13e	-0.03532528
5	0x3d8f31dd	0.069919325
6	0xbcc86b98	-0.024465367
7	0x3db10c8a	0.0864497
8	0x3d7629b7	0.060098376
9	0xbd133de4	-0.035947695
10	0x3db27211	0.08713163
11	0xbbbf9499	-0.0058465716
12	0x3ca83409	0.020532625
13	0x3da5b69c	0.080914706
14	0x3d1fed07	0.039044406
15	0x3d94e452	0.07270111
16	0x3c9c2011	0.01905826
17	0x3cd3af60	0.025840461
18	0x3c985127	0.018593384
19	0x3d9328ee	0.07185541
20	0x3c8289b4	0.015934803
21	0x3daf95a4	0.085734636
22	0x3c46c450	0.0121317655
23	0xbb18870c	-0.0023273854
24	0xbdd0cc8b	-0.101952635
25	0x3d9502de	0.072759375
26	0xbd9a9c0b	-0.07549294
27	0x3c22e04c	0.009941172
28	0xb9d0f990	-0.0003985879
29	0xbd999648	-0.07499367
30	0x3d2ce952	0.0422147
31	0x3d95e013	0.073181294
32	0xbca4b863	-0.020107454
33	0x3b96fec6	0.004608008
34	0xbc83254c	-0.016008995
35	0x3d64e6e4	0.055884257
36	0x3d9e3477	0.077248506
37	0x3cdf0d2e	0.027227964
38	0xbd19cadc	-0.037546977
39	0xbc819a88	-0.015820757
40	0x3cf9bccc	0.030485533
41	0x3b8735a7	0.004126269
42	0xbc834c73	-0.016027665
43	0xbc8fee02	-0.017569546
44	0x3d60913a	0.054826
45	0xbdd078a0	-0.101792574
46	0xbcbc2382	-0.02296615
47	0xbde09afe	-0.109670624
48	0xbc9281b1	-0.017884107
49	0xbde3d985	-0.11125473
50	0x3db610e4	0.088899404
51	0xbcc9a0e3	-0.02461285
52	0xbc7a4713	-0.0152757345
53	0x3d513249	0.051073346
54	0xba673155	-0.0008819302
55	0x3da9db97	0.082938366
56	0x3d85fef9	0.06542773
57	0xb83cd688	-4.502249e-05
58	0x3b823f2e	0.0039748168
59	0x3d013f57	0.031554546
60	0xbc7349ac	-0.014849108
61	0x3db31a31	0.0874523
62	0xbd55c4eb	-0.05218975
63	0xbc206efd	-0.009792087
64	0x3d35d161	0.044389132
65	0x3d737f27	0.059447434
66	0x3cf8e587	0.030382885
67	0x3d496c2c	0.049175426
68	0xbc9314bc	-0.017954223
69	0x3d8d8ec2	0.069119945
70	0xbcdbdc29	-0.026838379
71	0x3c05fbee	0.0081777405
72	0xbba2709a	-0.004957271
73	0x3da92b35	0.08260194
74	0x3d99d869	0.0751198
75	0x3d68e0d7	0.05685505
76	0xbd8417e5	-0.0644987
77	0xbcb20b67	-0.021733953
78	0x3c36439a	0.011124516
79	0xbd22b9b3	-0.039727878
80	0xbcfe8fac	-0.031074367
81	0x3d8fc5ec	0.070201725
82	0xbd7cc448	-0.061710626
83	0xbd319f1a	-0.04336462
84	0x3d0510c8	0.032486707
85	0x3d8e3ee2	0.06945588
86	0xbbfed11e	-0.0077763936
87	0x3d903927	0.07042151
88	0x3d4981aa	0.049195923
89	0xbcce8ad1	-0.025212677
90	0x3d4bfcfb	0.049801808
91	0x3da7900b	0.08181771
92	0x3d23cfc6	0.03999307
93	0x3c86d655	0.016459623
94	0x3c271df3	0.010200012
95	0xbba31f19	-0.0049780724
96	0x3dacf7c6	0.084456965
97	0xbd3ee795	-0.046607573
98	0x3b8d3283	0.004309
99	0xbcfc44d7	-0.030794544
100	0xbd05c0ff	-0.03265476
101	0x3da57542	0.08079006
102	0x3de1972d	0.110151626
103	0x3d832b3d	0.064047314
104	0x3cbe8d2c	0.023260675
105	0x3dacdcba	0.08440538
106	0xbc6d9b26	-0.014502322
107	0x3bf8cfaa	0.007593115
108	0xbcb3ef82	-0.021964792
109	0xbd9c4262	-0.07629849
110	0x3c081ffb	0.008308406
111	0x3d87a18c	0.066226095
112	0xbd74ccca	-0.059765615
113	0x3c9fde52	0.01951519
114	0xbbedf9a9	-0.007262428
115	0x3b6d103f	0.0036173014
116	0x3dacb876	0.08433621
117	0xbbc7e612	-0.0061004246
118	0xbca7013e	-0.020386335
119	0xbd30f587	-0.043202903
120	0x3d5b1bf2	0.053493448
121	0xbd02e349	-0.031955037
122	0xbc249728	-0.010045804
123	0x3c9fa8f2	0.01948974
124	0xbbe0c2c8	-0.0068591572
125	0xbcc28fae	-0.023750152
126	0x3d8d1ca1	0.06890226
127	0x3da13865	0.078720845
128	0xbcdfe039	-0.027328597
129	0x3cf49e0e	0.029860523
130	0x3c8ac39f	0.016938983
131	0x3cbcef77	0.023063404
132	0xbcffc172	-0.031220172
133	0xbc02d418	-0.007985137
134	0xbc04dcff	-0.00810933
135	0x3c80b4ed	0.015711272
136	0xbc4f5adc	-0.01265594
137	0x3cce4cbb	0.025183072
138	0xbdc04112	-0.09387411
139	0x3c80bf27	0.015716149
140	0xbd08276b	-0.033240717
141	0xbda279fb	-0.07933422
142	0x3cb2901c	0.021797232
143	0xbd18dfab	-0.03732268
144	0x3d800b07	0.06252103
145	0x3d9a7dcf	0.07543527
146	0xbd0c0ab6	-0.034189902
147	0xbd0a0b07	-0.033701923
148	0x3c836b41	0.016042354
149	0xbdc3836e	-0.095465526
150	0xbdc3079d	-0.095229365
151	0x3a66fe56	0.0008811703
152	0x3c1204f3	0.008912313
153	0x3d0b4d68	0.034009367
154	0xbd553de0	-0.05206096
155	0xbb91a3ef	-0.0044445912
156	0xbb4c28ae	-0.0031152177
157	0x3d8ad8dc	0.06779644
158	0x3d96699f	0.073443644
159	0xbd3dac28	-0.04630676
160	0x3da6a502	0.081369415
161	0xbd0f5555	-0.03499349
162	0x3d84466a	0.06458743
163	0xbc4b29e1	-0.012400121
164	0xbc36f808	-0.011167534
165	0x3cda942d	0.026681984
166	0x3d344f9a	0.044021226
167	0x3ce1a59b	0.027544787
168	0xbcf905bc	-0.030398242
169	0xbd1f0ed7	-0.03883251
170	0xba94336c	-0.0011306829
171	0xbd36c61c	-0.044622526
172	0xbcfb90bd	-0.030708665
173	0x3d8882e2	0.06665589
174	0xbd29c924	-0.04145159
175	0x3d1f2046	0.038849138
176	0x3d8d38ca	0.06895597
177	0x3d339625	0.04384436
178	0xbc63ddec	-0.013907891
179	0x3dc48614	0.09595886
180	0xbc9741ad	-0.018463934
181	0xbc5bd00c	-0.013416301
182	0x3d3e392d	0.046441246
183	0xbd11f77c	-0.03563641
184	0x3d48341c	0.04887782
185	0x3d3dd9cb	0.04635028
186	0xbdbc9789	-0.092085905
187	0xbc249618	-0.010045551
188	0x3c3ac147	0.01139862
189	0x3d892e53	0.06698289
190	0xbd7b6f04	-0.06138517
191	0x3c8dd1d4	0.017311968
192	0xbd0a9370	-0.033832014
193	0xbc9199e8	-0.017773584
194	0x3d188da3	0.03724445
195	0x3d6e68c0	0.058205366
196	0x3d15bc9f	0.036556836
197	0xbd09e823	-0.03366865
198	0xbb626c44	-0.0034549395
199	0x3d1ea2e8	0.03872958
200	0x3c0420b1	0.008064435
201	0xbd878819	-0.066177554
202	0x3d33b2cd	0.04387169
203	0xbaef7e79	-0.0018271945
204	0x3d881441	0.06644488
205	0x3dd3ebca	0.103477076
206	0x3dabeef3	0.08395185
207	0xbd4cb1e8	-0.049974352
208	0x3be7781d	0.007063879
209	0x3cd2d441	0.025735976
210	0x3c51775a	0.012784803
211	0x3d5185c1	0.05115295
212	0x3d7b091e	0.06128799
213	0x3d98a415	0.07453171
214	0x3d39ae26	0.045332097
215	0x3d8b7c4b	0.068108164
216	0x3d5e0dfd	0.05421256
217	0xbbc3924d	-0.005968368
218	0x3c0300b4	0.007995773
219	0x3c734783	0.014848593
220	0xbcb9f4d3	-0.02269975
221	0xbd82db4c	-0.06389484
222	0x3d823063	0.06356885
223	0x3d82e747	0.06391769
224	0xbc9203ad	-0.017824018
225	0xbd155251	-0.036455456
226	0xba04541a	-0.00050479325
227	0xbcc0c897	-0.023533149
228	0x3d6243f5	0.05524059
229	0x3cff29e7	0.03114791
230	0x3da78471	0.08179558
231	0xbd65cdc6	-0.056104444
232	0xbd161022	-0.03663648
233	0x3d419eb6	0.0472705
234	0xbc3c9640	-0.011510432
235	0xbca4b0ec	-0.020103894
236	0xbbe00fa3	-0.0068378015
237	0xbd34348f	-0.043995436
238	0x3c907477	0.01763366
239	0x3da016b0	0.07816827
240	0xbc5d8ee4	-0.013522837
241	0x3d4db7bf	0.050224062
242	0x3d865250	0.065586686
243	0xbdf5db06	-0.12004666
244	0x3d029f2e	0.031890087
245	0xbc79593b	-0.015219028
246	0x3c4d5dba	0.012534553
247	0xbb15887f	-0.0022816954
248	0xbc9c9500	-0.019114017
249	0x3d5afb97	0.05346259
250	0xbd0bbadb	-0.034113746
251	0xbcdc8e44	-0.026923306
252	0xbd8b254a	-0.06794222
253	0x3bc5f1e4	0.0060407985
254	0xbd219f0c	-0.03945832
255	0x3db9a630	0.09064901

module.2.bias f4 [128]
0	0x3d552059	0.052032802
1	0xbc5c607a	-0.013450736
2	0xbcf22534	-0.029558755
3	0x3d0d94e0	0.034565806
4	0x3c0ceaef	0.008600934
5	0x3cce4884	0.025181063
6	0x3c890bdb	0.016729286
7	0x3d5a826a	0.05334703
8	0x3d572706	0.05252745
9	0x3d236041	0.039886717
10	0xbd27f391	-0.041003767
11	0xbd118d56	-0.03553518
12	0x3d8424a6	0.06452303
13	0x3cf74013	0.03018192
14	0x3c9725cb	0.018450638
15	0x3c4b9a97	0.012426994
16	0x3d0fc5a5	0.035100598
17	0xbcfb7138	-0.030693635
18	0x3cb1e5c0	0.021715999
19	0x3cdd33d1	0.027002247
20	0x3d39a5d0	0.045324147
21	0x3d778f66	0.06043949
22	0xbd591a8f	-0.053003844
23	0x3cbabc82	0.022794966
24	0xbd6374fe	-0.055531494
25	0x3cb59d3d	0.022169704
26	0x3cc3ff79	0.02392553
27	0xbcd44d6c	-0.025915824
28	0xbc7fa6a5	-0.015603696
29	0xbc7bc320	-0.015366346
30	0x3d2b9afe	0.04189586
31	0x3d963057	0.07333439
32	0x3d5af96b	0.05346052
33	0xbd2da258	-0.04239115
34	0x3cd78f75	0.026313523
35	0x3d5d86bc	0.05408357
36	0x3c8fec40	0.017568707
37	0x3c8a744f	0.016901163
38	0x3b21ecc9	0.0024707785
39	0x3d97df1f	0.07415604
40	0xbca15c9c	-0.01969748
41	0xbd16b1ee	-0.03679078
42	0x3c9b569b	0.018962195
43	0x3b0d2fb4	0.0021543326
44	0xbce35d68	-0.0277545
45	0x3d491afa	0.049097992
46	0x3d89dd41	0.06731654
47	0xbd2c5460	-0.042072654
48	0xbbc13b06	-0.0058969287
49	0x3cee007a	0.029052962
50	0xbcba8fea	-0.022773702
51	0x3d855172	0.06509675
52	0xbcca4c56	-0.024694603
53	0xbca7429a	-0.0204175
54	0x3ca4b251	0.02010456
55	0x3d66bdf7	0.05633351
56	0x3d81e856	0.06343143
57	0x3d4308ca	0.047615804
58	0x3bfa96ff	0.0076473947
59	0xbd52c2b2	-0.051455207
60	0xbd2358c4	-0.039879575
61	0x3d022d9e	0.031781785
62	0xbd1b9258	-0.03798136
63	0xbd7db56e	-0.061940603
64	0x3c7b030c	0.015320551
65	0x3c159007	0.009128577
66	0xbd175c5e	-0.036953323
67	0xbd52db0f	-0.05147844
68	0x3d066d57	0.03281912
69	0xbbd45b73	-0.006480628
70	0x3cb809a7	0.02246554
71	0xbbb14815	-0.005410204
72	0xbd262082	-0.040558346
73	0x3cbfecc9	0.023428338
74	0xbbf6319e	-0.007513239
75	0x3d8a9ef7	0.067686014
76	0xbd755389	-0.05989412
77	0x3d7272c6	0.059191488
78	0xbc435a78	-0.011923425
79	0xbcc02328	-0.023454264
80	0x3d203e8b	0.039122146
81	0x3caa065f	0.020754991
82	0xbcb79a14	-0.022412337
83	0x3d266982	0.040627964
84	0x3d34c3e9	0.044132147
85	0x3d776c55	0.060406048
86	0x3c8ce759	0.017200159
87	0x3bf234fc	0.00739157
88	0xbd771cb2	-0.0603301
89	0x3b92d120	0.004480496
90	0xbbd51d6a	-0.0065037506
91	0x3c00edcb	0.007869194
92	0xbce64f53	-0.028113997
93	0x3d870551	0.06592811
94	0xbd7cb20c	-0.061693236
95	0x3bde290d	0.006779796
96	0xbd32dcb8	-0.043667525
97	0x3c2c1f07	0.010505444
98	0x3b995c5e	0.0046802005
99	0x3cc76028	0.024337843
100	0x3c79ca95	0.015246053
101	0xbd62aebc	-0.05534242
102	0xbcf64ba5	-0.030065367
103	0x3ca3effc	0.020011894
104	0x3c01d767	0.007924891
105	0xbd97c18a	-0.074099615
106	0x3d43416d	0.047669817
107	0x3d081401	0.033222202
108	0x3d47e329	0.04880062
109	0x3d1dc5ce	0.03851872
110	0xbd594f80	-0.053054333
111	0xbc406d5f	-0.011744826
112	0x3d4c4275	0.049868066
113	0xbc91dacc	-0.017804526
114	0xbc0623c5	-0.008187239
115	0xbd183c4a	-0.03716687
116	0xbd2cf91b	-0.042229753
117	0x3d60bf17	0.054869737
118	0x3d3b456d	0.045720506
119	0x3d673e03	0.056455623
120	0x3d31fad7	0.04345211
121	0xbd14ebfc	-0.036357865
122	0xbd0971a9	-0.03355566
123	0x3c39145a	0.011296356
124	0xbd706da8	-0.058698326
125	0x3d10ec9c	0.0353819
126	0x3c8a3380	0.01687026
127	0x3c6c9aa3	0.014441165

module.4.weight f4 [64, 128]
0	0x3dabf9a4	0.083972245
1	0x3d36b75e	0.044608466
2	0x3da37e24	0.07983044
3	0x3d6e2670	0.058142126
4	0x3c2ac0b4	0.010421921
5	0xbba924d9	-0.0051618633
6	0x3d707ac9	0.058710847
7	0x3dace2b0	0.08441675
8	0xbd9df9ff	-0.077136986
9	0x3dd03fea	0.10168441
10	0x3dd0c48a	0.10193737
11	0xbd0665d6	-0.032811962
12	0x3de31325	0.11087636
13	0x3dc50536	0.096201345
14	0x3d432d48	0.047650605
15	0xbd8083d9	-0.06275148
16	0x3de04a22	0.1095164
17	0x3ceec772	0.029147837
18	0xbcd6f32c	-0.026239
19	0x3db17ffc	0.08666989
20	0x3d4e457b	0.05035923
21	0x3d7c4789	0.06159166
22	0x3cc2c796	0.02377681
23	0xba4d8bac	-0.0007840942
24	0xbdab3e62	-0.08361508
25	0x3d19b967	0.03753033
26	0xbd419a04	-0.04726602
27	0x3dd4dd1a	0.10393734
28	0xbc82c610	-0.015963584
29	0x3daa8d6e	0.08327757
30	0xbd2cc5cd	-0.042180825
31	0x3dd39000	0.103302
32	0x3d8fe603	0.07026293
33	0x3d3062ab	0.043062847
34	0x3a52b39a	0.0008037627
35	0xbd61c792	-0.055121966
36	0xbcfa6874	-0.030567385
37	0xbd025095	-0.03181513
38	0x3da10c91	0.07863725
39	0x3c75b13d	0.01499587
40	0xbd443069	-0.04789773
41	0xbd736a75	-0.059427697
42	0x3de17e5c	0.11010429
43	0x3dd5a894	0.10432544
44	0x3d09d931	0.033654395
45	0x3db32dce	0.08748971
46	0xbcb8182c	-0.022472464
47	0xbcb40b45	-0.02197803
48	0xbd290c7c	-0.04127167
49	0xbb85f91f	-0.0040885354
50	0xbda97958	-0.082750976
51	0x3dbc1d3e	0.09185265
52	0x39c7f73e	0.00038140448
53	0xbd3fac32	-0.046795078
54	0x3d67ae48	0.056562692
55	0x3d5c63ff	0.0538063
56	0x3dc10b13	0.0942594
57	0x3daeb33a	0.085302785
58	0x3d8ea375	0.06964771
59	0x3d7ee62a	0.06223122
60	0xbdac9155	-0.084261574
61	0xb966649a	-0.00021971986
62	0xbd7f5fc7	-0.0623472
63	0xbd87c538	-0.06629413
64	0xbc43c2af	-0.011948272
65	0xbd45f86b	-0.048332613
66	0x3da8e5df	0.082469694
67	0xbd9eeb89	-0.077597685
68	0x3dce0937	0.10060351
69	0xbd2adff2	-0.041717477
70	0x3bf59548	0.0074946024
71	0x3d89e505	0.06733135
72	0x3d1726b2	0.036902137
73	0x3d0c67be	0.034278624
74	0x3d661002	0.05616761
75	0xbbb3fe43	-0.005492957
76	0xbcd7637b	-0.026292553
77	0xbcc0d90b	-0.023540994
78	0x3c8ff5e8	0.017573312
79	0xbd2978c9	-0.041374955
80	0x3d80d4a9	0.06290562
81	0x3c4336a5	0.011914884
82	0xbcbf4819	-0.023349809
83	0x3dd4ee0f	0.103969686
84	0x3d91b28b	0.071141325
85	0xbcfbac89	-0.03072192
86	0x3da1bc61	0.078972585
87	0xbc824e9d	-0.015906626
88	0xbdb3cbce	-0.08779107
89	0x3daae048	0.083435595
90	0x3cfb4e5c	0.030677013
91	0xb7b50a7e	-2.1581767e-05
92	0xbbc3613f	-0.0059625204
93	0x3d927a16	0.07152192
94	0xbd18791c	-0.037224874
95	0xbda481cc	-0.08032569
96	0x3dc8987f	0.09794711
97	0x3d4e1901	0.050316814
98	0xbd16a04c	-0.036773965
99	0xbce89758	-0.028392479
100	0xbd342c87	-0.043987777
101	0xbd8f6143	-0.07000973
102	0x3d107dad	0.035276104
103	0x3d507858	0.05089602
104	0x3d1f69d1	0.038919274
105	0xbd59d1a5	-0.05317845
106	0x3d1ecab8	0.038767546
107	0x3db5390c	0.088487715
108	0xbd81e6c7	-0.063428454
109	0x3ba2092e	0.004944942
110	0xbc932ea0	-0.017966568
111	0x3c90ce50	0.017676502
112	0x3bb382e2	0.005478249
113	0x3daaff5a	0.08349486
114	0x3d92b523	0.07163455
115	0x3c6ea29f	0.014565139
116	0xbd3f62d9	-0.046725128
117	0xbd622e2d	-0.055219818
118	0x3d3ae970	0.04563278
119	0xbd267a1e	-0.040643804
120	0xbcc0ff02	-0.023559097
121	0x3cca4119	0.024689244
122	0xbdaca69c	-0.08430216
123	0x3cfb4b70	0.03067562
124	0xbd7e80a1	-0.06213439
125	0x3dbaac37	0.091148786
126	0x3d9cc705	0.076551475
127	0xbd8dcf0e	-0.06924258
128	0xbcf7abd9	-0.03023331
129	0x3cf57af2	0.029965851
130	0x3dae8552	0.085215226
131	0x3d0cf492	0.034412928
132	0xbd9420ed	-0.072328426
133	0x3d747248	0.0596793
134	0xbd6bf821	-0.05760968
135	0xbd5b6fa8	-0.05357328
136	0x3d62eb09	0.05539993
137	0xbcf3c50c	-0.029757045
138	0xbd5a9f20	-0.05337441
139	0xbcd51287	-0.026009811
140	0x3da06ffc	0.07833859
141	0x3db7ed79	0.08980841
142	0x3d52538b	0.051349204
143	0x3d292d7a	0.041303135
144	0xbb66eb5c	-0.00352355
145	0x3d631cfc	0.055447564
146	0xbbe80300	-0.0070804358
147	0x3d224250	0.03961402
148	0x3dba88d4	0.09108129
149	0xbd8a29da	-0.06746264
150	0xbd79c2f3	-0.060976934
151	0x3d1a5cea	0.037686266
152	0x3c1b252c	0.009469312
153	0xbbff6176	-0.0077936007
154	0x3db54873	0.08851709
155	0x3cc2a026	0.023758005
156	0x3d01ea0c	0.031717345
157	0x39f0c67f	0.00045924258
158	0x3d9059ab	0.07048353
159	0x3d5668fb	0.05234621
160	0xbd1a0c18	-0.03760919
161	0xbda9c361	-0.08289219
162	0x3d1b2b25	0.037882943
163	0xbd779378	-0.06044337
164	0xbd15e1bf	-0.03659224
165	0x3d8798a8	0.06620914
166	0xbd78c287	-0.06073239
167	0x3c27fd95	0.01025333
168	0xbbb15092	-0.005411216
169	0xbda343a5	-0.079718865
170	0xbcc6925e	-0.024239715
171	0x3d7a6b1e	0.06113731
172	0x3d8fc3b3	0.070197485
173	0xbd9714ab	-0.07376989
174	0x3dda5dd9	0.10662431
175	0x3b9c6cb5	0.004773701
176	0x3cbb8ad1	0.022893341
177	0x3d2da8c5	0.04239728
178	0x3d2b9f4c	0.041899964
179	0x3d0b5dcd	0.034025002
180	0x3beb8608	0.0071876086
181	0x3a49f785	0.0007704425
182	0x3c8890c6	0.016670596
183	0x3d2692c9	0.04066733
184	0x3dbbe66b	0.09174808
185	0xbcbc162f	-0.022959797
186	0xbd5e46b8	-0.05426666
187	0x3d56421e	0.052309148
188	0x3baf5bee	0.005351535
189	0xbd9a378a	-0.075301245
190	0xbd4ed92d	-0.050500084
191	0xbd31f2a1	-0.04344428
192	0x3dc50613	0.09620299
193	0xbcbbfeed	-0.022948707
194	0xbd607544	-0.054799333
195	0x3d9168dc	0.071000785
196	0x3d845246	0.06461005
197	0xbc4ed222	-0.012623342
198	0xbd648784	-0.0557933
199	0xbd2feec4	-0.042952314
200	0xbd1d0524	-0.03833498
201	0x3cc6b770	0.024257392
202	0xbd724355	-0.059146244
203	0xbc204bff	-0.009783744
204	0xbd61f7fc	-0.055168137
205	0xbd71d52d	-0.05904119
206	0x3c706d4d	0.014674497
207	0x3dda1f08	0.1065045
208	0x3d9ee0f6	0.07757752
209	0xbcf13ad4	-0.029446997
210	0xbd5bf250	-0.053697884
211	0xbb8d22c3	-0.0043071224
212	0xbd2b72cb	-0.041857522
213	0xbd1e37d2	-0.038627453
214	0xbd656f77	-0.056014504
215	0x3d69f927	0.057122376
216	0x3daecf5a	0.08535643
217	0x3d1e0910	0.03858286
218	0xbb953f0e	-0.004554636
219	0x3db62fc4	0.08895829
220	0x3db4adfd	0.08822248
221	0x3db35937	0.08757251
222	0xbd6e26b9	-0.058142398
223	0x3cc773ff	0.024347303
224	0xbd47db18	-0.04879293
225	0xbca306d2	-0.019900713
226	0x3ae47960	0.0017431192
227	0xbdaa1d73	-0.08306398
228	0x3d8b856a	0.06812556
229	0x3c2bb118	0.010479234
230	0x3badb74f	0.005301393
231	0x3d480583	0.04883338
232	0xbd801543	-0.06254055
233	0x3d0322b5	0.03201552
234	0xbd53b394	-0.05168493
235	0xbc6a3f68	-0.014297344
236	0x3d0c1ec9	0.034209047
237	0x3dde3e15	0.10851685
238	0x3d43a495	0.04776438
239	0xbd51775e	-0.051139228
240	0x3d14ef8c	0.036361262
241	0x3da93406	0.08261876
242	0xbb5b5f99	-0.0033473729
243	0xbd74ae6a	-0.059736647
244	0x3c5feb2b	0.013666908
245	0x3d29b504	0.041432396
246	0x3d989ccd	0.074517824
247	0x3d8c6882	0.06855871
248	0xbb6f9c63	-0.003656172
249	0xbd302eed	-0.043013502
250	0xbdab55ff	-0.08366012
251	0x3dc4ff26	0.09618978
252	0xbd41ac2c	-0.047283337
253	0x3d4da2d8	0.050204128
254	0x3db26ce3	0.08712175
255	0xbd1796f5	-0.0370092

module.4.bias f4 [64]
0	0x3da19d1f	0.078912966
1	0x3cf97b4f	0.030454306
2	0xbd90ed2a	-0.070764855
3	0x3dcb01d1	0.09912456
4	0xbdaf1863	-0.08549573
5	0xbd8a9087	-0.06765848
6	0xbca497e8	-0.020091966
7	0xbd838d8e	-0.06423484
8	0xbcfe805f	-0.031067071
9	0xbc01c5e9	-0.007920721
10	0xbd88fd39	-0.066889234
11	0xbdb10003	-0.0864258
12	0x3d3a912b	0.0455486
13	0xbd3b1c2a	-0.045681156
14	0xbd622ddb	-0.055219512
15	0xbcc1c338	-0.023652658
16	0x3da75a0d	0.08171473
17	0x3d92a520	0.07160401
18	0x3d9ff7bd	0.07810924
19	0xbd832a13	-0.064045094
20	0x3b469cfa	0.0030305968
21	0x3d8b8969	0.06813318
22	0x3d70bd12	0.05877406
23	0xbb9224a7	-0.0044599357
24	0xbcf228a0	-0.029560387
25	0xbdb118cf	-0.0864731
26	0xbc2a92fb	-0.010411019
27	0xbd4e7313	-0.050402712
28	0x3ceb3901	0.028713705
29	0x3dad9eda	0.08477564
30	0x3d27f63e	0.04100632
31	0xbda85d0d	-0.08220873
32	0x3ba54167	0.005043197
33	0xbd393cfa	-0.045224167
34	0xbd8758be	-0.06608723
35	0xbd0ccf52	-0.034377404
36	0x3d26f8c7	0.040764596
37	0x3d1967d7	0.037452545
38	0xbd528578	-0.051396817
39	0x3d0f1918	0.03493604
40	0x3c4bae78	0.012431733
41	0x3be89bac	0.0070986357
42	0xbd1fc203	-0.039003383
43	0x3d680a64	0.056650534
44	0x3d83f145	0.06442503
45	0xbd1f75c4	-0.03893067
46	0x3d7390bd	0.059464205
47	0xbd479f9c	-0.0487362
48	0x3d97ac36	0.074058935
49	0x3d2e691c	0.04258071
50	0x3daa14f6	0.08304779
51	0x3d4a215a	0.049348213
52	0xbd81feb3	-0.06347408
53	0xbd7bb162	-0.061448462
54	0x3daea98a	0.08528431
55	0x3d0aea33	0.033914756
56	0xbd3cda08	-0.04610637
57	0x3d876a96	0.066121265
58	0x3d051382	0.032489307
59	0x3d80a294	0.06281009
60	0x3dba77c1	0.091048725
61	0x3d7ba685	0.061438102
62	0xbc8bb99f	-0.017056284
63	0xbdb1154a	-0.08646639

module.6.weight f4 [32, 64]
0	0x3d509868	0.050926596
1	0xbd5ff5e0	-0.054677844
2	0xbdba9ca6	-0.091119096
3	0xbd392960	-0.045205474
4	0x3dd91448	0.105995715
5	0x3d018554	0.031621292
6	0xbdd6d194	-0.104891926
7	0x3dea9f88	0.114562094
8	0xbd42162c	-0.047384426
9	0x3d459e08	0.048246413
10	0xbcd41db0	-0.025893062
11	0xbc855e20	-0.016280234
12	0xbdcd8222	-0.100345865
13	0xbd9f8fda	-0.077911094
14	0x3aa53e80	0.0012607127
15	0x3d01eb98	0.03171882
16	0x3d843834	0.064560324
17	0xbda5a474	-0.080880076
18	0x3d440ee8	0.04786578
19	0x3cbe07e8	0.02319713
20	0xbc3e5870	-0.011617765
21	0xbd96835a	-0.07349272
22	0x3db833c8	0.089942515
23	0x3d875374	0.06607714
24	0xbdb2d4be	-0.087319836
25	0x3c1fb1d0	0.009746984
26	0x3d13b41c	0.036060438
27	0x3d6d1420	0.05788052
28	0x3c8fc568	0.017550185
29	0xbc5d0170	-0.013489112
30	0x3d5b4df0	0.053541124
31	0x3cf59448	0.029977933
32	0x3c4e7630	0.01260142
33	0x3ddd0e2c	0.10793719
34	0x3d939dfc	0.072078675
35	0xbc9f83a8	-0.019471958
36	0x3dbc4fb8	0.09194893
37	0x3b4ee380	0.0031568706
38	0xbcd56690	-0.026049882
39	0xbd50424c	-0.050844476
40	0xbde1dcfc	-0.110284775
41	0x3d7d1970	0.061791837
42	0x3c847c38	0.016172513
43	0xbc39d500	-0.011342287
44	0x3d191228	0.03737083
45	0xbdb7b0c8	-0.08969265
46	0xbdcc80b4	-0.09985486
47	0xbd94653e	-0.07245873
48	0xbd316940	-0.043313265
49	0x3d892f16	0.06698434
50	0x3b836040	0.0040092766
51	0xbd777eac	-0.060423538
52	0xbcd1f068	-0.02562733
53	0xbcedc028	-0.029022291
54	0x3d1f9c64	0.038967505
55	0x3d340b20	0.043955922
56	0x3ddceeca	0.10787733
57	0x3d809946	0.062792346
58	0xbd30b234	-0.043138698
59	0x3d1f2190	0.038850367
60	0xbd93a8f4	-0.072099596
61	0x3dad997e	0.08476542
62	0xbbf6f420	-0.007536426
63	0x3d214540	0.039372683
64	0x3de1d663	0.11027219
65	0x3d18fb2a	0.037348904
66	0xbd9bbb92	-0.076041356
67	0xbdd243da	-0.10266848
68	0x3a35be00	0.0006932914
69	0xbcf00dc1	-0.029303433
70	0xbcddf517	-0.027094407
71	0xbdb985b9	-0.09058709
72	0xbdc501c9	-0.09619481
73	0xbde11216	-0.10989778
74	0xbda5a4a7	-0.080880456
75	0xbbf78283	-0.0075534
76	0xbbc524b1	-0.006016337
77	0x3c24f430	0.010067984
78	0x3db175cc	0.08665046
79	0xbd030b42	-0.03199316
80	0x3d89ee99	0.06734962
81	0x3e07d23e	0.13263795
82	0xbdb717aa	-0.089400604
83	0x3da53cd2	0.08068241
84	0xbd0fe27b	-0.035128098
85	0x3dcaefe7	0.09909039
86	0xbcd34ee7	-0.02579446
87	0xbdba7c5b	-0.0910575
88	0x3ddd6572	0.10810365
89	0xbde7efa4	-0.11325005
90	0xbda87438	-0.08225292
91	0xbba226be	-0.004948466
92	0xbdbfafec	-0.09359726
93	0xbcd1702d	-0.025566185
94	0xbc2f521d	-0.01070073
95	0x3d331c20	0.043727994
96	0x3daa37d4	0.083114296
97	0xbd6a6589	-0.057225738
98	0xbd660edb	-0.05616651
99	0x3d84c73d	0.06483314
100	0xbdcae998	-0.09907836
101	0x3dd99726	0.106245324
102	0xbd30a63a	-0.043127276
103	0x3c0dfe1c	0.008666541
104	0xb88e38ba	-6.781654e-05
105	0xbd782f88	-0.060592204
106	0x3db80037	0.08984416
107	0x3aae681a	0.0013306171
108	0xbd8bcc04	-0.06826022
109	0xbd5920be	-0.05300974
110	0xbd9c8b2d	-0.07643733
111	0xbde7f60e	-0.11326228
112	0xbd6fe101	-0.05856419
113	0xbde63ca8	-0.11242038
114	0x3ddf76eb	0.10911354
115	0x3dc7d6b9	0.09757752
116	0xbe00b917	-0.12570606
117	0xbd168d1c	-0.036755666
118	0x3d1446a4	0.03620018
119	0x3df1d9c9	0.11809117
120	0x3db48d7d	0.08816049
121	0xbc7b97d9	-0.0153560275
122	0x3c27958a	0.010228524
123	0x3dcba017	0.09942644
124	0xbd6e2817	-0.0581437
125	0xbdadc0b1	-0.084840186
126	0xbdcdfa84	-0.10057548
127	0x3d09f654	0.033682182
128	0xbde43820	-0.111435175
129	0xbdb9beb8	-0.0906958
130	0xbba09120	-0.0049001127
131	0x3d43dd98	0.04781875
132	0x3db2ae98	0.08724707
133	0xbd82c3c6	-0.06384997
134	0x3bec5cc0	0.007213205
135	0xbda40624	-0.08008984
136	0x3c9acda8	0.018896893
137	0xbc895f68	-0.016769126
138	0x3d7162b8	0.058932036
139	0xbd3c6654	-0.045996025
140	0x3d4bd4bc	0.049763426
141	0xbdfed20a	-0.124424055
142	0x3dd1c5ee	0.1024283
143	0xbdb81298	-0.089879215
144	0xbd6c6368	-0.05771199
145	0xbd2b7708	-0.041861564
146	0xbda93e8c	-0.08263883
147	0xbd8a76fc	-0.06760976
148	0x3c417cb0	0.011809513
149	0xbc919b58	-0.017774269
150	0x3d2696ec	0.040671274
151	0xbd66f860	-0.056389213
152	0x3da92782	0.08259489
153	0x3d023378	0.031787366
154	0x3dc3665e	0.09541009
155	0x3d79eb5c	0.06101547
156	0xbd4b14c8	-0.049580365
157	0xbdf269e6	-0.11836605
158	0xbd131f6c	-0.035918638
159	0xbd52b7f8	-0.051444978
160	0x3c6ff9f0	0.014646992
161	0xbdfc6650	-0.12324202
162	0x3d9f5f2e	0.07781826
163	0x3c109f40	0.008827031
164	0x3dd5ab8a	0.10433109
165	0xbdbdc0fa	-0.09265323
166	0x3df1912c	0.117952675
167	0xbcdce958	-0.026966736
168	0xbc4dc000	-0.012557983
169	0xbdb013c4	-0.0859752
170	0xbd8bad9c	-0.06820223
171	0x3df659fa	0.120288804
172	0xbc8789a0	-0.016545117
173	0x3d0044d0	0.031315625
174	0x3d0201a8	0.03173986
175	0x3de0a23c	0.10968444
176	0xbdeae9a4	-0.11470345
177	0xbb1599c0	-0.0022827238
178	0xbdc57ed4	-0.09643331
179	0xbd3c99c4	-0.04604508
180	0xbda34a3a	-0.07973142
181	0x3dc0e9fa	0.094196275
182	0xbdacfa2e	-0.084461555
183	0x3da3d178	0.07998937
184	0xbd037f3c	-0.032103762
185	0xbdac8f4e	-0.08425771
186	0x3c64eb30	0.013972089
187	0xbd621424	-0.05519499
188	0xbc2178b0	-0.009855434
189	0x3c98fa20	0.018673956
190	0x3d8352fe	0.06412314
191	0x3da065e8	0.07831937
192	0x3b76c346	0.0037653013
193	0x3dbfd59e	0.09366916
194	0x3d89d666	0.067303464
195	0xbbe1627d	-0.006878196
196	0x3dfaacde	0.12240003
197	0x3e170a27	0.14749967
198	0xbc053e98	-0.008132599
199	0x3d240065	0.04003944
200	0x3c949b2a	0.018140394
201	0x3d3c134c	0.04591684
202	0x3d3e584d	0.04647093
203	0x3e2e6332	0.17030028
204	0xbcf83070	-0.030296534
205	0xbd498e74	-0.04920812
206	0x3df34103	0.118776344
207	0xbdff7190	-0.12472832
208	0xbd10f767	-0.03539219
209	0x3be1c828	0.0068903156
210	0x3dd9d821	0.106369264
211	0xbd0a9123	-0.03382982
212	0xbd62fe4c	-0.055418298
213	0xbd599938	-0.053124636
214	0xbaa8b1f8	-0.0012870422
215	0xbdcb6751	-0.099318154
216	0xbcbfea30	-0.023427099
217	0xbdb142b8	-0.08655304
218	0xbdf6c55c	-0.12049362
219	0xbb943f74	-0.0045241658
220	0x3c80573f	0.015666602
221	0x3e096f03	0.13421254
222	0x3d11f4b8	0.035633773
223	0xbdbfe662	-0.09370114
224	0x3df0ba02	0.11754228
225	0x3cc3c9b6	0.023899894
226	0x3c7ac000	0.015304565
227	0xbd81e92a	-0.06343301
228	0x3dc3c997	0.095599346
229	0xbdc48e36	-0.09597437
230	0x3c5f16f1	0.0136163095
231	0xbdb6c1cf	-0.08923685
232	0x3e070e59	0.13189067
233	0x3cb44ee8	0.022010282
234	0x3dd3c122	0.103395715
235	0x3d3ccbed	0.046092916
236	0xbde843a4	-0.113410264
237	0x3db3d00c	0.08779916
238	0x3d84a4af	0.064767234
239	0xbdde6a79	-0.10860152
240	0x3dacaaa8	0.084309876
241	0xbdc92970	-0.09822357
242	0x3e112c10	0.14176965
243	0xbd1d28a9	-0.038368855
244	0xbcb2f14a	-0.021843571
245	0xbb6f8226	-0.003654608
246	0x3db9c391	0.090705045
247	0x3d8454aa	0.06461461
248	0x3d2b6101	0.041840557
249	0xbca03d28	-0.019560412
250	0x3c86329c	0.016381554
251	0xbc8ec65c	-0.01742857
252	0x3dce7585	0.10081009
253	0x3be15478	0.0068765245
254	0xbdab6bfd	-0.083702065
255	0xbdcbd302	-0.09952356

module.6.bias f4 [32]
0	0xbde12550	-0.10993445
1	0x3d59c651	0.053167645
2	0xbbe72ca0	-0.0070548803
3	0x3df0add1	0.11751903
4	0xbd867243	-0.065647624
5	0xbda324e7	-0.07966023
6	0xbc70aa90	-0.014689103
7	0x3de4b95e	0.111681685
8	0x3cb7335f	0.022363363
9	0x3b93167d	0.004488765
10	0x3d56eca8	0.052471787
11	0xbd9ce276	-0.076603815
12	0xbd08c688	-0.03339246
13	0x3d477c29	0.048702393
14	0x3dcdc562	0.100474134
15	0x3d5a129b	0.0532404
16	0xbabca6ed	-0.001439301
17	0xbc0bc640	-0.008531153
18	0xbd1513a2	-0.036395676
19	0x3dbecc2c	0.093162864
20	0xbd8fc270	-0.07019508
21	0x3dbd04f8	0.09229463
22	0x3c92fa4a	0.017941613
23	0x3d623689	0.05522779
24	0x3d17385e	0.03691899
25	0x3d6f756f	0.058461603
26	0x3d8a2857	0.067459755
27	0xbd3d410a	-0.046204604
28	0xbd8e4820	-0.069473505
29	0xbdb84aec	-0.08998665
30	0xbc6ff530	-0.01464586
31	0xbdee1a54	-0.116261154

module.8.weight f4 [16, 32]
0	0x3db3b924	0.08775547
1	0xbc863541	-0.016382815
2	0x3dcad288	0.09903437
3	0x3dc022a4	0.09381607
4	0xbda1d459	-0.0790183
5	0xbd441270	-0.047869146
6	0x3cd930f4	0.0265126
7	0xbc837e4e	-0.016051438
8	0xbd93e8a4	-0.07222107
9	0xbd852c2e	-0.06502567
10	0x3e2de24f	0.16980861
11	0xbdec1148	-0.11526734
12	0x3da85831	0.08219946
13	0x3cbfefb8	0.023429736
14	0xbe2ebcf2	-0.17064264
15	0x3cc63870	0.024196833
16	0x3dc51f9a	0.09625168
17	0xbe1c034d	-0.15235634
18	0x3de3d1bc	0.11123988
19	0x3e34e9b8	0.17667282
20	0x3d46c02d	0.048523117
21	0xbe2cd79b	-0.16879122
22	0xbc7712ca	-0.015080163
23	0xbe48d4e7	-0.19612466
24	0xbdbea494	-0.093087345
25	0x3daec17f	0.08533
26	0x3e2c7b3c	0.16843885
27	0xbe149296	-0.14509043
28	0xbd1826c8	-0.03714636
29	0x3e00dbf2	0.12583902
30	0x3cd3ccfe	0.025854584
31	0xbdaeafa7	-0.08529597
32	0xbd39234a	-0.04519967
33	0x3d7dc0a2	0.061951287
34	0xbda8bf16	-0.08239572
35	0xbd3799a2	-0.04482425
36	0x3dfb3238	0.12265438
37	0xbd8263dc	-0.06366703
38	0xbe2d1cae	-0.16905472
39	0xbbc3fd4b	-0.0059811226
40	0x3e1b5b05	0.1517144
41	0x3d591e99	0.053007696
42	0x3e1d3b98	0.15354764
43	0xbdc9eb83	-0.098593734
44	0xbb48254f	-0.0030539816
45	0x3dffbef5	0.12487594
46	0x3e061541	0.13094045
47	0x3e3781a8	0.17920554
48	0xbc60df49	-0.01372511
49	0x3c9f17b7	0.019420488
50	0x3dbbf804	0.091781646
51	0x3c23fa81	0.010008455
52	0x3cd7dd52	0.026350651
53	0x3dfe5c37	0.12419932
54	0x3da4bd8f	0.08043968
55	0x3db25ff1	0.087097056
56	0x3c5613ee	0.013066275
57	0x3bb6b500	0.005575776
58	0x3d52dcec	0.05148022
59	0xbe1f5935	-0.15561374
60	0xbd16abab	-0.03678481
61	0x3ca319a3	0.019909685
62	0x3e2a1a2e	0.1661155
63	0xbe30a346	-0.17249784
64	0x3e14bf04	0.14525992
65	0xbe1b4e3e	-0.15166566
66	0xbe21f1b8	-0.15814865
67	0xbda3f169	-0.0800503
68	0xbc29d9f6	-0.010366907
69	0xbd80ef43	-0.062956356
70	0xbe0cc699	-0.13747634
71	0xbe36ee4f	-0.17864345
72	0x3dfcb397	0.123389415
73	0x3e1329f1	0.14371468
74	0xbdf4681c	-0.1193392
75	0xbdbacc11	-0.09120954
76	0xbd2d92be	-0.042376272
77	0xbe2f8ada	-0.17142811
78	0x3d3b611e	0.045746915
79	0xbd2f2c18	-0.04276666
80	0xbca6cf64	-0.020362563
81	0x3d1b6b1c	0.037943944
82	0xbc650cd4	-0.013980109
83	0xbdcea635	-0.10090295
84	0x3dd50851	0.10401977
85	0xbda4aac0	-0.080403805
86	0xbd758844	-0.059944406
87	0xbdbd9a9b	-0.09258004
88	0xbd8f72dc	-0.070043296
89	0x3de24a23	0.11049297
90	0x3b87d442	0.004145176
91	0xbcdb4af5	-0.02676914
92	0xbd423599	-0.047414396
93	0xbd615998	-0.055017084
94	0x3e274430	0.16334605
95	0x3dc2ac58	0.09505528
96	0x3cd6c845	0.026218543
97	0x3deb75d1	0.11497081
98	0x3d636348	0.055514604
99	0x3dda19d4	0.106494576
100	0x3ca11154	0.019661583
101	0x3e1de0b4	0.15417749
102	0xbdaa6685	-0.08320335
103	0xbdf58168	-0.11987573
104	0xbe1586b3	-0.14602165
105	0xbe049527	-0.12947522
106	0x3c49fc40	0.0123282075
107	0x3e16928f	0.14704345
108	0xbde3c0c4	-0.111207515
109	0x3e19769d	0.14986654
110	0x3e1ca1dd	0.15296121
111	0xbde1373d	-0.10996864
112	0xbe01ef2e	-0.12688896
113	0xbb71f743	-0.003692106
114	0x3ce5e7ca	0.028064627
115	0x3e208a17	0.15677677
116	0x3cd2634e	0.025682118
117	0xbdc65b7e	-0.096854195
118	0x3d39d85a	0.045372345
119	0x3d4f5c94	0.0506254
120	0x3e051d70	0.12999511
121	0x3e23899d	0.15970464
122	0x3d1a0e82	0.037611492
123	0x3e26ec90	0.16301179
124	0xbe1a641a	-0.15077248
125	0x3dfe2df1	0.124111064
126	0x3e20db8d	0.15708752
127	0xbe1faf3f	-0.15594195
128	0xbe137c4e	-0.14402887
129	0x3c2921b4	0.010322977
130	0x3daf95a4	0.085734636
131	0x3d0dc896	0.03461512
132	0xbc54b662	-0.012982937
133	0xbc3cb705	-0.011518245
134	0xbe2fbd64	-0.1716209
135	0x3d4778ac	0.048699066
136	0xbe0b2bfc	-0.13590997
137	0xbe35c241	-0.17749883
138	0x3d2cf9a7	0.042230275
139	0xbc1a9e59	-0.009437167
140	0x3e1eab68	0.15495074
141	0x3dca9050	0.09890807
142	0xbe228faa	-0.15875116
143	0xbd73c061	-0.05950964
144	0xbd9508fa	-0.07277103
145	0x3dc59375	0.09647266
146	0x3da817b6	0.082076475
147	0xbd1b16b2	-0.03786344
148	0xbe2a21d8	-0.16614473
149	0xbbbe3fa0	-0.0058059245
150	0x3e27bb0a	0.16379943
151	0x3e1f2d79	0.1554469
152	0x3db86e5a	0.09005423
153	0xbe08a246	-0.13343152
154	0x3d3a598f	0.045495566
155	0xbccc45b7	-0.024935586
156	0x3d840da5	0.06447915
157	0x3e076b1d	0.13224454
158	0xbceac2d5	-0.028657356
159	0xbc3d5c0f	-0.011557593
160	0x3d9a1d06	0.07525067
161	0xbc478116	-0.012176773
162	0x3e09eb18	0.13468587
163	0xba693aae	-0.00088969886
164	0xbc51f79b	-0.012815381
165	0xbd5ec7ad	-0.054389644
166	0xbdb18563	-0.086680196
167	0x3d6ad3be	0.05733084
168	0xbd0d1358	-0.034442276
169	0xbe237904	-0.15964133
170	0xbde7cdc5	-0.11318544
171	0xbdd21792	-0.10258402
172	0xbe0a8f14	-0.13531142
173	0xbe118b2c	-0.14213246
174	0xbd8625e9	-0.065501995
175	0x3dbb361e	0.091411814
176	0x3c29047b	0.01031601
177	0xbdad7d9c	-0.08471224
178	0x3e09f747	0.13473235
179	0xbc5a84cf	-0.013337328
180	0x3b3d48f7	0.0028882602
181	0x3dcd8d8a	0.10036762
182	0xbe1c5baf	-0.1526935
183	0xbe288c8e	-0.16459867
184	0x3e15a963	0.14615397
185	0x3c486893	0.012231964
186	0xbe26712f	-0.16254114
187	0xbd53cf01	-0.051711086
188	0x3e1e44f0	0.15455985
189	0x3d67c362	0.056582816
190	0x3df89594	0.12137905
191	0x3e32d9d4	0.17465907
192	0xbe08551c	-0.13313717
193	0xbd70e53e	-0.058812372
194	0xbdd31b74	-0.10307971
195	0xbcc71f7f	-0.02430701
196	0xbb75304f	-0.0037412827
197	0xbdfbd2e4	-0.122960836
198	0xbd647f68	-0.055785567
199	0xbd331161	-0.043717746
200	0xbde9beaa	-0.114133194
201	0x3c0521ac	0.008125704
202	0xbe26759c	-0.16255802
203	0xbd6de792	-0.05808217
204	0xbde76aaa	-0.112996414
205	0x3dcb8e0b	0.09939202
206	0x3e04e4e7	0.12977944
207	0x3dc90e95	0.098172344
208	0x3d9afe89	0.0756808
209	0x3d8c1258	0.06839436
210	0x3d8b89be	0.068133816
211	0x3d8fe48d	0.070260145
212	0xbd9060b7	-0.07049697
213	0xbd2f8426	-0.042850636
214	0xbd98d402	-0.07462312
215	0xbd27a46c	-0.04092829
216	0xbe020944	-0.12698847
217	0x3cc0592a	0.023480017
218	0xbccf37b6	-0.02529512
219	0x3d901cb4	0.07036725
220	0x3e179f84	0.14806944
221	0x3cbf6ccc	0.023367308
222	0xbe2c209e	-0.16809317
223	0x3cf9a66e	0.030474868
224	0xbe296e5c	-0.16546005
225	0x3df43c20	0.119255304
226	0x3e210ebd	0.15728278
227	0xbdbeec0a	-0.09322365
228	0x3e24e942	0.16104606
229	0x3ca18c99	0.019720362
230	0x3c7e00d5	0.015503128
231	0x3c90fb48	0.017697945
232	0xbc59c2cc	-0.013291072
233	0x3dca2a95	0.09871403
234	0x3d93683c	0.071976155
235	0xbe13271a	-0.14370385
236	0xbdbe7886	-0.09300332
237	0x3d23952f	0.039937194
238	0xbe103495	-0.14082558
239	0xbe33730e	-0.17524359
240	0xbcbdd2f1	-0.023171874
241	0x3d6f5886	0.058434032
242	0x3ddfb90d	0.109239675
243	0xbdd410eb	-0.10354789
244	0x3dcd16fd	0.1001415
245	0xbc01cd12	-0.007922428
246	0xbe23d70f	-0.16000007
247	0xbe11b5e3	-0.1422954
248	0xbdf54f8e	-0.119780645
249	0xbdf7a86e	-0.12092672
250	0xbd10fc41	-0.035396818
251	0xbe150c96	-0.14555582
252	0x3c044b52	0.008074598
253	0x3e18ccce	0.14921877
254	0x3dbd6eeb	0.092496715
255	0x3c4669f4	0.012110222

module.8.bias f4 [16]
0	0xbe1e2c13	-0.154465
1	0xbe314188	-0.17310154
2	0x3d934913	0.07191672
3	0xbe13c862	-0.14431909
4	0x3d2b9ff4	0.04190059
5	0xbda8ca1a	-0.08241673
6	0xbd82e41f	-0.06391167
7	0xbdac8926	-0.084245965
8	0x3d79cd2a	0.060986675
9	0xbd27e4d0	-0.040989697
10	0x3e304996	0.17215571
11	0xbd9ff64a	-0.07810648
12	0x3d175b82	0.036952503
13	0xbd80c35f	-0.06287264
14	0xbe295f2e	-0.16540214
15	0x3e00dda7	0.12584554
